PPO_preTrained/DC_agent/PPO_DC_agent_42_1.pth (torch, 47629 bytes, 11 tensors)

actor.0.weight f4 [64, 17]
0.18542781 0.20130649 -0.056819424 0.22279596 -0.053140417 0.048941433 -0.118079685 0.14243695
0.21380556 -0.17793095 0.21081105 0.04539281 0.17918748 0.03284675 0.1169478 -0.034243852
0.18696728 0.026799833 -0.12247092 0.05271529 -0.12099062 -0.03754898 -0.10775408 0.15178655
-0.20069417 -0.12094588 -0.077734806 -0.1548796 0.01741845 -0.24872343 0.21152209 -0.2149002
0.17909761 0.03457431 -0.081336655 0.14705324 0.0350818 0.19310911 0.023777012 -0.07935483
0.06241834 -0.068648495 0.09927 0.21369134 0.13759127 -0.107586265 0.13816746 0.034979224
0.12177713 -0.16539697 -0.23507117 -0.09402853 -0.17945313 0.19897544 0.0759639 0.10025258
0.08270383 -0.0045445818 0.19555825 -0.1722998 0.021541925 -0.16599503 0.07104672 -0.09813036
0.0844571 -0.063581266 0.19528243 -0.14584626 -0.14464775 -0.14465648 0.21814692 0.08082527
0.23338008 -0.2001589 -0.24056529 -0.18975109 -0.16315106 0.09823665 0.08684614 0.20152876
-0.12525155 -0.1653394 0.1286841 -0.09803398 0.14720064 -0.057553858 0.13874152 -0.18844241
-0.122395545 0.07394341 0.051273853 -0.061836585 0.14456809 0.16487795 -0.17588037 -0.12948206
0.22208065 -0.0818394 -0.08598286 -0.23467617 -0.13889292 0.060586274 -0.032013044 -0.17605321
0.0056890845 -0.16567159 -0.20576641 -0.13355531 -0.21227011 -0.15443167 0.24244076 0.04580891
0.074739695 -0.22620916 -0.15929104 -0.080729395 0.03792557 -0.21341226 -0.10450205 -0.14519846
0.0006721318 -0.09024829 -0.016806692 -0.16434935 -0.16647528 -0.14149572 -0.083019316 -0.19142874
0.2033588 -0.048134595 0.20867684 0.07556975 -0.20537843 0.1678432 -0.06673242 -0.09297022
-0.20132166 -0.24111937 0.069392025 -0.052980423 0.094424725 -0.19904011 0.18006551 -0.17803419
-0.04187943 0.050658345 0.12520945 0.19580153 0.22094005 -0.19231187 0.061038285 -0.10432087
-0.026578218 -0.17940068 0.2253113 -0.17564525 0.13445319 0.0877994 0.08367256 -0.12843251
0.22556353 0.05594316 0.035786927 -0.21147849 0.10419179 -0.03293311 -0.09792247 0.20266081
0.062113974 -0.13404448 -0.12275672 -0.011582464 0.1354225 -0.061976045 -0.13838473 -0.08305459
-0.18119226 0.086496085 0.18773234 -0.22833282 0.05632907 0.12529191 0.04397884 -0.08637291
0.12658957 0.12745565 0.09069067 -0.042618707 -0.06422374 0.025946677 -0.042844906 -0.07227588
0.15503043 0.208435 -0.02401039 -0.05430296 0.003539145 -0.014481381 0.058308303 0.06796664
-0.22028463 -0.08950479 0.2042464 0.09448096 -0.012063131 -0.14622612 -0.14838453 -0.21725537
-0.0790575 0.081905305 0.15464595 0.111978054 -0.21438792 -0.14585182 -0.038276166 0.23461673
0.035084605 -0.06280963 0.100340694 -0.09237735 -0.15698256 0.16036658 -0.13092269 -0.06631748
-0.26163363 0.1447686 0.16344781 0.07097383 -0.18915935 -0.25737482 -0.21736899 0.16438201
0.113598935 0.21305002 0.06621336 0.053320378 -0.020479659 -0.183092 -0.19999152 -0.21376647
0.10845164 -0.10690216 -0.040020358 -0.1275721 -0.03558395 -0.1590081 -0.148874 0.093124114
-0.06451431 0.15302314 -0.085251726 -0.1376446 -0.03970617 -0.04460212 -0.082338646 -0.23089285
00000000: cae0 3d3e 4a23 4e3e 7cbb 68bd a024 643e
00000010: c4a9 59bd d076 483d c3d3 f1bd feda 113e
00000020: d8ef 5a3e 8833 36be dade 573e d0ed 393d
00000030: ec7c 373e 508a 063d 5482 ef3d 4843 0cbd
00000040: 5a74 3f3e 538b db3c 09d2 fabd fdeb 573d
00000050: eec9 f7bd f6cc 19bd 2cae dcbd ef6d 1b3e
00000060: c682 4dbe 79b2 f7bd 6d33 9fbd c298 1ebe
00000070: 23b1 8e3c 5bb1 7ebe 3f99 583e cc0e 5cbe
00000080: 5d65 373e cb9d 0d3d d593 a6bd 2095 163e
00000090: efb1 0f3d 65be 453e 02c8 c23c c984 a2bd
000000a0: 60aa 7f3d 9597 8cbd 124e cb3d e7d1 5a3e
000000b0: bae4 0c3e 3056 dcbd c57b 0d3e 6046 0f3d
000000c0: 4a66 f93d d35d 29be 7fb6 70be 0892 c0bd
000000d0: 90c2 37be 38c0 4b3e f692 9b3d 3a51 cd3d
000000e0: a060 a93d b7ea 94bb 6c40 483e 5c6f 30be
000000f0: b178 b03c 9afa 29be f180 913d 92f8 c8bd
00000100: d8f7 ac3d e536 82bd 1ef8 473e b958 15be
00000110: 8a1e 14be d420 14be e861 5f3e b887 a53d
00000120: 30fb 6e3e 74f6 4cbe bf56 76be 1c4e 42be
00000130: 1211 27be 4c30 c93d 64dc b13d 8e5d 4e3e
00000140: f141 00be bb4e 29be c4c5 033e 0ac6 c8bd
00000150: c4bb 163e 98bd 6bbd 4212 0e3e 0cf7 40be
00000160: 84aa fabd a46f 973d 8804 523d 5c48 7dbd
00000170: a809 143e c4d5 283e fc19 34be f296 04be
00000180: 1c69 633e 6a9b a7bd c817 b0bd f34e 70be
00000190: f239 0ebe 5029 783d 1c20 03bd 4b47 34be
000001a0: 806b ba3b d0a5 29be 6eb4 52be b9c2 08be
000001b0: 565d 59be 5623 1ebe 6442 783e 20a2 3b3d
000001c0: 2011 993d 60a3 67be 311d 23be 7455 a5bd
000001d0: d857 1b3d be88 5abe 2c05 d6bd e8ae 14be
000001e0: 0032 303a 18d4 b8bd 30ae 89bc 324b 28be
000001f0: 7f78 2abe 41e4 10be 0806 aabd e505 44be
00000200: 4a3d 503e c828 45bd 62af 553e 50c4 9a3d
00000210: b94e 52be 16df 2b3e 02ab 88bd 2c67 bebd
00000220: 4427 4ebe ffe7 76be 681d 8e3d 0002 59bd
00000230: c061 c13d 2cd1 4bbe 1863 383e 984e 36be
00000240: c489 2bbd 207f 4f3d e836 003e 3280 483e
00000250: 1c3e 623e 67ed 44be 4803 7a3d 2ea6 d5bd
00000260: 90ba d9bc d0b4 37be 01b8 663e 59dc 33be
00000270: 19ae 093e 2cd0 b33d 855c ab3d d083 03be
00000280: 20fa 663e a824 653d 5095 123d d18d 58be
00000290: 8162 d53d dee4 06bd 938b c8bd 5186 4f3e
000002a0: 396b 7e3d f542 09be e067 fbbd 60c4 3dbc
000002b0: 32ac 0a3e 98da 7dbd bab4 0dbe 8618 aabd
000002c0: 778a 39be dc24 b13d e83c 403e 14d0 69be
000002d0: 50b9 663d 864c 003e 2823 343d 48e4 b0bd
000002e0: b2a0 013e bc83 023e 08bc b93d f490 2ebd
000002f0: bc87 83bd 208e d43c 247e 2fbd 6005 94bd
00000300: 4cc0 1e3e fc6f 553e 70b1 c4bc c86c 5ebd
00000310: 00f1 673b 5043 6dbc b0d4 6e3d 1832 8b3d
00000320: 4b92 61be 4a4e b7bd f825 513e 3c7f c13d
00000330: 70a4 45bc 4dbc 15be 1df2 17be 3178 5ebe
00000340: e6e8 a1bd f8bd a73d 825b 1e3e c054 e53d
00000350: 8288 5bbe 2e5a 15be 78c7 1cbd 5e3f 703e
00000360: e0b4 0f3d 56a2 80bd 6c7f cd3d 5630 bdbd
00000370: 09c0 20be 2337 243e 9910 06be 75d1 87bd
00000380: d8f4 85be 383e 143e dd5e 273e ba5a 913d
00000390: fdb2 41be a2c6 83be fa95 5ebe c253 283e
000003a0: 8fa6 e83d c929 5a3e df9a 873d 7866 5a3d
000003b0: f5c4 a7bc 787c 3bbe 94ca 4cbe 99e5 5abe
000003c0: e51b de3d 85ef dabd 63ec 23bd 43a2 02be
000003d0: 7ac0 11bd 05d3 22be 6d72 18be dbb7 be3d
000003e0: 1420 84bd 19b2 1c3e 7598 aebd b5f2 0cbe
000003f0: f0a2 22bd b6b0 36bd 2aa1 a8bd 2d6f 6cbe

actor.0.bias f4 [64]
-0.12571529 -0.24682333 0.08495077 0.13457853 -0.20821975 0.08696988 0.20505834 0.014691979
-0.14611772 0.20459737 0.10356656 0.16060737 -0.16402332 0.13303712 -0.17231661 0.23998761
-0.10468099 0.14276955 0.048565716 0.065635726 -0.037194043 0.09961796 -0.10108203 -0.23411848
-0.08354485 0.19684021 -0.08034789 0.07623342 -0.09042167 0.1819379 0.14515519 0.08561838
-0.12343386 -0.19818309 0.011644294 -0.1422854 0.19941127 -0.23076148 0.10838148 0.24178717
0.12146872 0.08269948 -0.23335484 0.23054592 -0.032966867 -0.22662732 0.23942214 -0.09869519
-0.017158821 0.22526579 -0.17042142 -0.17159152 0.039440483 -0.03246434 0.05568086 -0.20341592
0.016771503 -0.10787007 -0.12023036 -0.21311623 0.1284744 0.046594772 -0.20505011 0.19525559
00000000: 82bb 00be 41bf 7cbe abfa ad3d f4ce 093e
00000010: 8f37 55be 441d b23d d0fa 513e a0b6 703c
00000020: e29f 15be f981 513e b41a d43d 4276 243e
00000030: bbf5 27be e23a 083e c473 30be 50bf 753e
00000040: fd62 d6bd 2e32 123e d8ec 463d 066c 863d
00000050: c858 18bd 8004 cc3d 1804 cfbd c1bc 6fbe
00000060: 9019 abbd 7b90 493e 6f8d a4bd 4420 9c3d
00000070: ff2e b9bd ee4d 3a3e 90a3 143e b058 af3d
00000080: e4ca fcbd 82f0 4abe b5c7 3e3c 44b3 11be
00000090: 7832 4c3e bd4c 6cbe 1cf7 dd3d 0e97 773e
000000a0: 98c4 f83d 585e a93d 92f4 6ebe 3b14 6c3e
000000b0: 4408 07bd fe10 68be 142b 753e b420 cabd
000000c0: a890 8cbc 13ac 663e f482 2ebe b0b5 2fbe
000000d0: 588c 213d 54f9 04bd 9d11 643d 434c 50be
000000e0: 6464 893c fcea dcbd 563b f6bd 243b 5abe
000000f0: cb8e 033e 29da 3e3d a8f8 51be 15f1 473e

actor.2.weight f4 [64, 64]
0.034483403 0.026414435 -0.07017458 0.025853412 0.11722314 0.08251618 -0.0941394 0.110883266
0.00646935 0.05613185 0.093865156 0.10334426 -0.10066123 0.12086002 -0.08297741 0.01259015
-0.100889124 -0.02016019 -0.008899744 -0.018173318 -0.022966258 0.013078208 0.12008296 0.07582354
0.07152314 0.04763562 0.09207084 -0.008988022 0.0089780055 0.022505365 -0.112235695 -0.09747523
0.023327315 -0.04568708 0.00053537183 -0.025463082 0.022677116 0.083928 -0.038236037 0.10332696
0.09547584 -0.092717886 -0.09974766 -0.097853534 -0.071475595 -0.04544033 -0.0061893067 -0.027179755
-0.059936866 -0.030940352 -0.030120319 0.119410396 -0.049547806 -0.092719495 0.055181406 -0.0040008076
0.09883645 0.0748847 0.11960512 -0.09436635 0.083577305 0.11394391 -0.06494828 0.11786466
0.09465823 0.00041575838 0.05931598 -0.039678086 -0.10807011 0.032550417 0.03631275 -0.08074201
0.061577864 -0.1068222 0.10853087 0.122001655 0.034985207 -0.06873465 0.06703409 0.020348938
0.022265268 0.06407308 0.0961223 -0.0527768 -0.027165102 0.033135332 0.014573176 0.09981795
-0.065796 -0.003825775 0.020340184 -0.032245718 0.08218249 0.014625733 -0.114575885 -0.01449502
-0.04572353 0.01119336 -0.013938381 -0.124944635 -0.0237312 -0.013656025 -0.037812717 0.11389469
-0.02632186 0.07934929 0.03191765 -0.107953645 0.02915124 0.10263909 -0.082715444 -0.08174973
0.12140327 0.11175732 -0.06968566 0.07617099 -0.01503848 -0.12228831 0.008438646 0.039433844
-0.037571892 0.04443834 -0.098176725 0.088489324 0.105613925 0.070301384 0.022139443 0.039929744
-0.09314209 -0.028535606 -0.009241234 -0.08389831 -0.09502612 0.08137858 0.08752927 -0.11622214
0.0370777 0.051732965 0.11604743 0.069620594 0.11221847 -0.044993058 0.0880811 0.10437378
-0.11059574 -0.11185316 0.022601947 0.06555806 -0.06480026 0.016465541 -0.0028801935 0.034323394
-0.06878358 0.071270525 0.0887498 -0.0894309 0.011058971 -0.00235191 0.037440676 0.119146675
0.042366233 -0.025704011 0.11815874 -0.044867817 -0.03359768 0.019384224 -0.09248999 0.0163009
-0.08750805 0.015551307 0.009277209 0.011759714 -0.10157944 -0.11602442 0.060213458 0.109898105
-0.10822293 0.033827215 -0.08612341 0.005137667 0.1135961 0.09212878 -0.08869386 0.0800201
0.06756203 -0.0028904604 0.10913288 -0.05338877 -0.026390746 -0.049090654 0.01528838 0.035551112
0.011667074 -0.07203654 -0.05797858 0.045763295 -0.10789642 -0.017759694 -0.0044759894 -0.048938464
0.04719678 0.009188844 0.08946496 -0.009394391 -0.07718542 0.09032872 0.025507525 -0.037506793
-0.08780885 0.046774797 -0.11751218 0.034628678 0.06351247 -0.111356944 -0.080127165 -0.091601335
0.10293571 0.09797161 0.00616717 0.11905761 -0.058077075 -0.11964589 0.045368884 0.042576548
0.1297611 -0.0017432229 0.09342762 0.07491359 0.08876422 -0.1313185 0.10122536 -0.10826349
0.11377077 -0.0068871332 -0.10907026 0.04066068 -0.020077243 -0.11398105 -0.0470243 0.0111811
0.095648944 -0.04263282 0.059879724 0.01736069 0.0059205284 0.025625246 -0.08374047 -0.10560666
-0.039334893 -0.11477487 -0.048128154 0.008544537 -0.08403304 -0.060035903 -0.02075368 -0.016253121
00000000: 783e 0d3d 1663 d83c b1b7 8fbd 89ca d33c
00000010: b012 f03d 3efe a83d 28cc c0bd c416 e33d
00000020: d7fc d33b 83ea 653d 603c c03d 28a6 d33d
00000030: 7a27 cebd 7585 f73d 0ff0 a9bd eb46 4e3c
00000040: f59e cebd fc26 a5bc 3bd0 11bc 36e0 94bc
00000050: bc23 bcbc fb45 563c 0eee f53d 5f49 9b3d
00000060: b97a 923d 911d 433d a38f bc3d 7f42 13bc
00000070: 7c18 133c 2c5d b83c d4db e5bd 18a1 c7bd
00000080: ed18 bf3c 6022 3bbd 3258 0c3a f497 d0bc
00000090: 5cc5 b93c 71e2 ab3d 649d 1cbd 169d d33d
000000a0: d688 c33d e0e2 bdbd 8048 ccbd 6f67 c8bd
000000b0: cc61 92bd a41f 3abd abcf cabb 14a8 debc
000000c0: 5c80 75bd 9f76 fdbc e3be f6bc 708d f43d
000000d0: a4f2 4abd b8e3 bdbd e605 623d 3519 83bb
000000e0: c46a ca3d 265d 993d 87f3 f43d 2543 c1bd
000000f0: 942a ab3d 6d5b e93d 9b03 85bd 0763 f13d
00000100: 2ddc c13d 25fa d939 50f5 723d 7d85 22bd
00000110: dd53 ddbd 9653 053d aebc 143d 115c a5bd
00000120: 1239 7c3d 99c5 dabd 6f45 de3d 01dc f93d
00000130: a64c 0f3d c1c4 8cbd 2b49 893d d1b2 a63c
00000140: a765 b63c bf38 833d c5db c43d 7c2c 58bd
00000150: 5989 debc eab8 073d 55c4 6e3c 5a6d cc3d
00000160: 0ec0 86bd dbb9 7abb 75a0 a63c 1614 04bd
00000170: 4b4f a83d c5a0 6f3c c3a6 eabd 857c 6dbc
00000180: 9948 3bbd 5b64 373c cf5d 64bc f9e2 ffbd
00000190: ef67 c2bc 85bd 5fbc 82e1 1abd 9f41 e93d
000001a0: f1a0 d7bc e181 a23d 15bc 023d cd16 ddbd
000001b0: 95ce ee3c 7134 d23d b766 a9bd 676c a7bd
000001c0: 47a2 f83d 06e1 e43d 5bb7 8ebd 89ff 9b3d
000001d0: f563 76bc 4b72 fabd 3f42 0a3c 6285 213d
000001e0: fce4 19bd fa04 363d e110 c9bd e439 b53d
000001f0: 1d4c d83d 2cfa 8f3d c75d b53c 5f8d 233d
00000200: 48c1 bebd 81c3 e9bc 8b68 17bc e1d2 abbd
00000210: 0e9d c2bd d0a9 a63d 8c42 b33d e005 eebd
00000220: c9de 173d f2e5 533d 46aa ed3d 3e95 8e3d
00000230: ccd2 e53d a44a 38bd dd63 b43d ecc1 d53d
00000240: 0580 e2bd 4513 e5bd b827 b93c 4e43 863d
00000250: 00b6 84bd bee2 863c a1c1 3cbb b096 0c3d
00000260: 68de 8cbd 48f6 913d 75c2 b53d 8c27 b7bd
00000270: b030 353c 8122 1abb 655b 193d 2c03 f43d
00000280: 3788 2d3d 3891 d2bc 36fd f13d 51c7 37bd
00000290: b99d 09bd aacb 9e3c 646b bdbd 7789 853c
000002a0: 6c37 b3bd e9ca 7e3c 6fff 173c d1ab 403c
000002b0: e208 d0bd 369e edbd 63a2 763d 4212 e13d
000002c0: fca3 ddbd 688e 0a3d 7861 b0bd e059 a83b
000002d0: 12a5 e83d 04ae bc3d 20a5 b5bd 94e1 a33d
000002e0: f65d 8a3d e16d 3dbb 0f81 df3d 2fae 5abd
000002f0: 6831 d8bc 4813 49bd 1d7c 7a3c 0b9e 113d
00000300: 4127 3f3c e587 93bd f37a 6dbd 4b72 3b3d
00000310: ccf8 dcbd c77c 91bc 52ab 92bb b373 48bd
00000320: 6951 413d ce8c 163c 6839 b73d efea 19bc
00000330: 6413 9ebd 44fe b83d 28f5 d03c b9a0 19bd
00000340: 20d5 b3bd ee96 3f3d 3aaa f0bd cdd6 0d3d
00000350: d312 823d 1c0f e4bd b619 a4bd 7b99 bbbd
00000360: f5cf d23d 57a5 c83d f915 ca3b 7ad4 f33d
00000370: 3ae2 6dbd e808 f5bd b9d4 393d bf64 2e3d
00000380: 18e0 043e db7c e4ba fb56 bf3d 4c6c 993d
00000390: 04ca b53d 5b78 06be 3e4f cf3d 40b9 ddbd
000003a0: a600 e93d 76ad e1bb 3a60 dfbd d08b 263d
000003b0: 0879 a4bc e66e e9bd 8d9c 40bd ef30 373c
000003c0: 98e3 c33d c09f 2ebd 7144 753d 0138 8e3c
000003d0: fe00 c23b 09ec d13c 2080 abbd 4e48 d8bd
000003e0: a01d 21bd 160f ebbd 0722 45bd 63fe 0b3c
000003f0: 8419 acbd 35e8 75bd 9f03 aabc 4425 85bc

actor.2.bias f4 [64]
0.020135865 0.050506786 0.07331993 0.08567112 0.09295615 0.05217275 0.093420684 0.07953961
-0.02130711 0.007328375 -0.06854398 -0.09657776 0.12009278 -0.091206424 -0.07781917 -0.11661011
-0.09615816 0.029034136 0.062258724 -0.10355516 0.005443014 -0.09097659 0.022682166 0.07291881
-0.050724994 -0.056067035 0.08238968 -0.07813268 -0.027324809 -0.10745503 0.08666432 0.04166808
-0.05231371 0.09084345 0.12238319 0.04918885 -0.083770335 -0.024728494 0.09978705 0.09289736
-0.041283686 0.08091377 -0.0826794 0.032043986 0.11129198 0.02282838 -0.097598515 0.037275698
0.06303524 0.08726924 -0.08199789 -0.024418943 -0.007531538 -0.02387845 -0.02622271 -0.04282672
0.043234803 0.057812516 -0.026498863 0.09864589 -0.00095739996 0.030638676 0.029989548 -0.040128708
00000000: f8f3 a43c 34e0 4e3d c228 963d 5774 af3d
00000010: cb5f be3d 18b3 553d 5853 bf3d aae5 a23d
00000020: 408c aebc dd22 f03b c960 8cbd 90ca c5bd
00000030: 34f3 f53d 6fca babd a85f 9fbd 48d1 eebd
00000040: 92ee c4bd ffd8 ed3c 0103 7f3d ba14 d4bd
00000050: 505b b23b ef51 babd f3cf b93c 7556 953d
00000060: 03c5 4fbd 8ca6 65bd ecbb a83d 0704 a0bd
00000070: 47d8 dfbc 6211 dcbd 107d b13d 26ac 2a3d
00000080: e746 56bd 210c ba3d 0aa4 fa3d 3f7a 493d
00000090: c88f abbd 6993 cabc 275d cc3d f940 be3d
000000a0: 1519 29bd 1eb6 a53d d153 a9bd 8e40 033d
000000b0: 0ded e33d 9502 bb3c bbe1 c7bd 67ae 183d
000000c0: 9f18 813d 37ba b23d 82ee a7bd 3c0a c8bc
000000d0: 1fcb f6bb bd9c c3bc 02d1 d6bc 126b 2fbd
000000e0: fa16 313d d1cc 6c3d 2514 d9bc db06 ca3d
000000f0: 06fa 7aba f6fd fa3c a4ac f53c 005e 24bd

actor.4.weight f4 [3, 64]
-0.007311509 -0.006407597 0.04067489 -0.06984282 -0.05790408 -0.11821589 -0.06196152 0.038371917
0.10889102 -0.13050075 -0.04354709 0.079467885 -0.06753343 0.08803597 0.004482331 -0.118295476
0.02275142 -0.071425006 0.025847942 -0.111755595 0.11825778 -0.05204724 0.083840884 -0.07627235
-0.10440133 0.051081467 0.068896584 0.0023707147 -0.10221283 -0.034420893 -0.08482135 0.027397897
0.017347172 0.07415513 0.12334007 -0.06179206 0.091756634 0.079168186 0.028032664 -0.12561736
-0.0706287 0.0556937 0.09015586 0.07203007 0.011457983 -0.07034247 -0.111632094 -0.07579058
0.0022565222 0.01706469 0.10649688 -0.09971501 0.06556339 0.10746988 -0.1129667 -0.06471481
-0.034032855 0.03133804 0.11219788 0.024020893 0.08144037 0.10506661 0.10223363 -0.115268685
-0.08309297 -0.0057043824 0.007925303 0.0076397443 0.09098243 0.105003275 -0.024461966 -0.041403897
-0.005502359 0.021980971 0.074893564 0.04698327 0.014826947 0.040863935 0.09741045 0.07658366
-0.013994923 -0.092606276 0.08467359 -0.012240313 -0.08986977 -0.020651838 0.08508564 -0.050978556
-0.036101323 0.03492286 0.08138297 -0.020091113 -0.08317132 -0.029592067 -0.044853926 0.0150634125
-0.083722845 0.10135523 0.032605253 -0.08186383 0.06377783 0.0055714315 0.113908835 -0.0019846857
-0.008451321 -0.12108606 -0.098949604 0.00072771945 0.10426054 -0.081145905 0.024211327 -0.053437673
-0.096002385 -0.039554626 -0.08129861 -0.09654216 -0.055672724 -0.006744453 0.06541408 0.057882346
-0.003744133 -0.018055787 -0.0281047 -0.09714239 0.080010846 0.10505432 -0.11039393 -0.11580891
-0.12093692 -0.0142982025 -0.0067927917 -0.08137143 0.07351195 -0.0016282122 -0.048420206 -0.11963045
0.10083415 0.12743688 0.011186191 -0.061299052 0.10543407 0.07137802 -0.015514396 0.11727825
-0.093088776 -0.011905314 0.10463613 -0.07723118 -0.037057646 -0.05503738 -0.050884385 0.096328475
0.08686271 -0.11266866 -0.077735394 3.1201002e-06 -0.04298826 -0.077167936 -0.11925219 0.092053644
0.0652891 0.03996656 -0.0271849 -0.12234254 -0.006655895 0.0455087 -0.029248357 0.098206714
0.017485272 -0.005242458 0.047393028 0.06444695 -0.092034 0.036217805 -0.111997336 -0.03224784
-0.041185226 0.0806535 -0.12555084 0.04990656 -0.1198553 0.053851582 0.029033441 -0.053211305
0.028183686 0.11918703 0.07474824 -0.11287103 -0.028948797 0.111933455 0.0171239 0.015478374
00000000: 6295 efbb d2f6 d1bb b79a 263d c109 8fbd
00000010: d42c 6dbd 2c1b f2bd 5dcb 7dbd df2b 1d3d
00000020: 4102 df3d fda1 05be 6f5e 32bd 0fc0 a23d
00000030: f84e 8abd 344c b43d 85e0 923b e644 f2bd
00000040: 3061 ba3c 4647 92bd 10bf d33c 1ee0 e4bd
00000050: 2331 f23d 7d2f 55bd c5b4 ab3d ae34 9cbd
00000060: 5dd0 d5bd cd3a 513d a719 8d3d fe5d 1b3b
00000070: f654 d1bd ecfc 0cbd d1b6 adbd 8e71 e03c
00000080: a81b 8e3c a5de 973d b899 fc3d ac19 7dbd
00000090: e7ea bb3d ee22 a23d c2a4 e53c d6a1 00be
000000a0: c8a5 90bd 141f 643d a3a3 b83d 8084 933d
000000b0: 44ba 3b3c b70f 90bd 5e9f e4bd 1738 9bbd
000000c0: 29e2 133b 40cb 8b3c 091b da3d 6237 ccbd
000000d0: 1946 863d 2b19 dc3d 165b e7bd 3389 84bd
000000e0: 0966 0bbd 515c 003d 01c8 e53d 77c7 c43c
000000f0: 35ca a63d 2a2d d73d de5f d13d fd11 ecbd
00000100: a62c aabd d4eb babb 21d9 013c d256 fa3b
00000110: ff54 ba3d f50b d73d 7664 c8bc 2297 29bd
00000120: 224d b4bb 7011 b43c cc61 993d 8871 403d
00000130: b9ec 723c f160 273d 217f c73d e5d7 9c3d
00000140: f64a 65bc 5ca8 bdbd 5969 ad3d 988b 48bc
00000150: a40d b8bd 0b2e a9bc 6141 ae3d e4ce 50bd
00000160: fbde 13bd 460b 0f3d 1dac a63d 1e96 a4bc
00000170: ba55 aabd 106b f2bc c0b8 37bd 88cc 763c
00000180: e276 abbd 5593 cf3d 168d 053d 39a8 a7bd
00000190: f39d 823d 8e90 b63b 0949 e93d 8011 02bb
000001a0: 6977 0abc f8fb f7bd 17a6 cabd 6dc4 3e3a
000001b0: 8d86 d53d d32f a6bd d556 c63c 76e1 5abd
000001c0: e69c c4bd 0804 22bd e37f a6bd e5b7 c5bd
000001d0: 1509 64bd 9300 ddbb d1f7 853d 0a16 6d3d
000001e0: 2160 75bb bbe9 93bc d43b e6bc 97f2 c6bd
000001f0: badc a33d b826 d73d 3616 e2bd 392d edbd
00000200: c7ad f7bd 0243 6abc 1196 debb 10a6 a6bd
00000210: 6f8d 963d bc69 d5ba 4454 46bd cf00 f5bd
00000220: 2382 ce3d d07e 023e 4946 373c b714 7bbd
00000230: d1ed d73d a42e 923d 1830 7ebc 942f f03d
00000240: 54a5 bebd 820e 43bc 784b d63d 622b 9ebd
00000250: c2c9 17bd e06e 61bd 256c 50bd dd47 c53d
00000260: 14e5 b13d d4be e6bd bc33 9fbd ea62 5136
00000270: 7514 30bd 390a 9ebd 7e3a f4bd 9f86 bc3d
00000280: 4bb6 853d fab3 233d deb2 debc ba8e fabd
00000290: b219 dabb 5567 3a3d 409a efbc 9a20 c93d
000002a0: 463d 8f3c edc8 abbb 311f 423d c3fc 833d
000002b0: 527c bcbd 1f59 143d dc5e e5bd 5016 04bd
000002c0: d7b1 28bd aa2d a53d 6690 00be d26a 4c3d
000002d0: b276 f5bd 7a93 5c3d 8ad7 ed3c 19f4 59bd
000002e0: 79e1 e63c 5418 f43d 9b15 993d ed28 e7bd
000002f0: 0726 edbc 5e3d e53d 6c47 8c3c 0299 7d3c

actor.4.bias f4 [3]
0.007620474 -0.04209736 -0.032166116
00000000: 2bb5 f93b 486e 2cbd 9ec0 03bd

critic.0.weight f4 [64, 17]
0.016096115 0.18256932 -0.06835826 -0.0634699 0.046169013 -0.08876938 0.21155414 0.18245077
0.010189176 -0.1568406 0.06787768 0.20568264 0.07990098 0.10166052 -0.12837748 -0.23892352
-0.09120011 0.007750958 0.21548578 0.050640196 -0.044461668 -0.060943246 -0.0463738 -0.13041848
-0.10153778 0.045057982 0.16424799 0.20600173 0.09339982 -0.16758528 0.22421277 0.2341946
-0.07207547 0.008362085 0.21954268 -0.08528757 0.114978224 0.04034117 0.13519567 0.0845027
0.24062824 0.20554823 -0.16549107 0.14595619 -0.047985554 -0.12690145 0.040679246 -0.03301215
-0.1580536 -0.21408121 -0.1351678 0.05444694 0.20077448 0.17754325 0.11729187 0.2643662
-0.15537521 -0.118632056 0.15648593 -0.18383825 0.28132665 0.06254384 -0.058061752 0.4179628
0.25900972 0.17206849 0.14723071 0.024586353 0.22220343 0.034067463 0.025519442 0.086317345
-0.18783951 -0.14297535 0.23153612 -0.15667354 0.13308665 0.14862153 -0.19486776 -0.025848074
-0.0007996431 0.18285613 -0.065061204 0.22035795 -0.19980127 0.101322055 0.13242495 -0.0873725
-0.079761 -0.15448177 0.064345956 0.08127704 -0.08524853 0.1961383 -0.037162617 -0.037790895
0.18942532 0.0424954 0.12983191 0.14295757 -0.15875569 -0.0030720085 0.21419719 -0.14997303
0.031764925 0.18016204 0.026779205 -0.054382905 0.0877046 -0.20061275 0.19926485 0.19052732
-0.06791791 -0.08773908 -0.047441572 0.2413162 -0.0930998 0.07262561 -0.23026146 0.07331082
0.14695376 0.07850388 -0.011524722 0.017699689 0.21003047 0.10540125 -0.05604367 -0.19480617
0.17676234 -0.0902974 0.1512157 -0.048744038 0.0040253997 -0.19127217 -0.092397094 0.020011425
-0.17269923 0.0049798763 0.19860801 0.22405359 0.2358241 -0.020457251 0.07601168 -0.14179905
0.18096422 0.09735851 0.26436082 0.047196303 0.10385232 -0.24376416 0.29008678 -0.23151287
-0.16592799 -0.21799308 -0.24847135 0.014035789 -0.20689648 -0.10528321 0.10396005 0.19452761
-0.07997237 0.14258267 -0.037976313 -0.07612999 -0.08100134 -0.048722815 0.27339724 -0.0665548
0.03174657 0.09497287 -0.15026769 -0.1928238 0.04525065 -0.043230016 -0.1723946 -0.22638166
-0.11156245 -0.21407479 0.0944017 -0.05869547 0.08304232 0.12373088 -0.2887371 -0.198225
-0.099844456 -0.2630506 -0.14014465 -0.14595823 0.16569363 -0.07480217 0.16790862 0.115874074
-0.07890062 -0.22297764 0.16699761 -0.0073071 0.20143905 -0.2471601 0.018844528 -0.23376949
-0.04668086 -0.23473758 -0.25726405 -0.013703741 0.2707084 0.023844386 0.0031864815 0.23004673
0.04727151 -0.13165367 0.17916757 0.17664301 0.23246826 0.19519258 0.25653374 -0.043889035
0.08719405 -0.4451216 0.010166721 0.048325736 -0.23472457 0.13253704 -0.1401329 0.001330033
-0.028876767 -0.10924478 0.020682245 -0.122858435 0.21967536 -0.08780095 0.1535123 -0.057771474
-0.19095555 0.18827581 -0.06696996 -0.100474685 0.018182755 -0.002471 0.06843901 -0.058845848
-0.069976196 0.13269967 0.111165255 0.21437556 0.026766598 -0.06296131 -0.051671 -0.04942456
-0.07664785 -0.082773134 -0.06833507 0.07314375 0.09596494 0.18460011 -0.236019 0.1880776
00000000: 00dc 833c 74f3 3a3e 6aff 8bbd 82fc 81bd
00000010: b81b 3d3d b8cc b5bd a6a1 583e 60d4 3a3e
00000020: 80f0 263c d29a 20be 7403 8b3d 789e 523e
00000030: 20a3 a33d 6433 d03d 6375 03be 5ea8 74be
00000040: 20c7 babd c0fb fd3b 4ea8 5c3e 186c 4f3d
00000050: 701d 36bd a09f 79bd 74f2 3dbd 6c8c 05be
00000060: 0af3 cfbd b88e 383d a030 283e 1ef2 523e
00000070: 6848 bf3d 7a9b 2bbe 0898 653e b6d0 6f3e
00000080: 4e9c 93bd 2001 093c cccf 603e 40ab aebd
00000090: b479 eb3d c83c 253d bc70 0a3e c00f ad3d
000000a0: 4067 763e 3c7b 523e 7e76 29be 8a75 153e
000000b0: 808c 44bd 74f2 01be 489f 263d c037 07bd
000000c0: ced8 21be 1b38 5bbe 6e69 0abe c103 5f3d
000000d0: d397 4d3e e6cd 353e b836 f03d 025b 873e
000000e0: ae1a 1fbe 5df5 f2bd d93d 203e 1840 3cbe
000000f0: 0c0a 903e fc16 803d 29d2 6dbd 38ff d53e
00000100: ec9c 843e b932 303e a6c3 163e 5269 c93c
00000110: 4c89 633e 538a 0b3d 260e d13c 26c7 b03d
00000120: 0059 40be 2168 12be ce17 6d3e 076f 20be
00000130: de47 083e 3e30 183e 6a8b 47be 57bf d3bc
00000140: 249f 51ba a33e 3b3e cf3e 85bd 84a5 613e
00000150: b498 4cbe f081 cf3d 689a 073e 5af0 b2bd
00000160: bc59 a3bd 7830 1ebe d0c7 833d 9474 a63d
00000170: c896 aebd 7ad8 483e d437 18bd a0ca 1abd
00000180: b6f8 413e a80f 2e3d a8f2 043e 7863 123e
00000190: da90 22be c053 49bb 8256 5b3e 8892 19be
000001a0: f01b 023d 667c 383e 1060 db3c 9cc0 5ebd
000001b0: 789e b33d 6e6d 4dbe 160c 4c3e 9819 433e
000001c0: 8c18 8bbd 8cb0 b3bd 1852 42bd 981b 773e
000001d0: 1cab bebd bcbc 943d a9c9 6bbe fc23 963d
000001e0: 0c7b 163e a4c6 a03d 30d2 3cbc f0fe 903c
000001f0: 3a12 573e 9cdc d73d 0c8e 65bd 457b 47be
00000200: 3001 353e d8ed b8bd 4ad8 1a3e d4a7 47bd
00000210: 80e7 833b dadc 43be b03a bdbd 00ef a33c
00000220: 11d8 30be 3b2e a33b e65f 4b3e 4e6e 653e
00000230: df7b 713e f795 a7bc 03ac 9b3d c533 11be
00000240: af4e 393e e663 c73d 4d5a 873e e950 413d
00000250: 86b0 d43d 509d 79be 4186 943e b611 6dbe
00000260: 07e9 29be 9439 5fbe 466f 7ebe 5ef6 653c
00000270: acdc 53be b99e d7bd 02e9 d43d 3f32 473e
00000280: 8ec8 a3bd 3101 123e 0d8d 1bbd 0aea 9bbd
00000290: 08e4 a5bd 9391 47bd b9fa 8b3e e24d 88bd
000002a0: b108 023d 2381 c23d c6df 19be 9a73 45be
000002b0: bf58 393d f511 31bd 3688 30be 98d0 67be
000002c0: db7a e4bd 6c36 5bbe ae55 c13d a96a 70bd
000002d0: 1812 aa3d 9e66 fd3d 59d5 93be 7ffb 4abe
000002e0: 407b ccbd 91ae 86be 1482 0fbe 1376 15be
000002f0: 97ab 293e e131 99bd 3df0 2b3e 634f ed3d
00000300: a696 a1bd 4054 64be 6c01 2b3e 6670 efbb
00000310: 0a46 4e3e 8a17 7dbe d75f 9a3c 4561 6fbe
00000320: 6e34 3fbd 0c5f 70be 1db8 83be a885 60bc
00000330: 4b9a 8a3e 4d55 c33c 4ad4 503b 5f91 6b3e
00000340: c59f 413d 38d0 06be b477 373e e8e1 343e
00000350: 290c 6e3e 90e0 473e 6458 833e fdc4 33bd
00000360: cb92 b23d fae6 e3be 5292 263c 35f1 453d
00000370: a35b 70be cab7 073e 007f 0fbe 8054 ae3a
00000380: f88e ecbc babb dfbd d06d a93c 349d fbbd
00000390: 94f2 603e fcd0 b3bd 5432 1d3e c8a1 6cbd
000003a0: da89 43be 60cb 403e 8c27 89bd acc5 cdbd
000003b0: 00f4 943c 80f0 21bb c029 8c3d 5808 71bd
000003c0: ae4f 8fbd 6ce2 073e 9caa e33d 4485 5b3e
000003d0: a045 db3c dcf1 80bd f8a4 53bd 6871 4abd
000003e0: 8cf9 9cbd f684 a9bd 42f3 8bbd 64cc 953d
000003f0: 4489 c43d d007 3d3e f7ae 71be 6a97 403e

critic.0.bias f4 [64]
-0.08609307 -0.18430535 -0.037708953 0.13368894 -0.122859426 0.22744602 -0.1084625 -0.107354686
-0.00018977922 -0.22215277 0.18187898 -0.16459294 -0.0371091 -0.073488116 0.20416579 0.1131461
0.089298815 -0.10485608 0.12257162 0.04399678 0.19323882 0.053840995 0.18671985 0.16004165
0.07478197 -0.17680286 0.049348593 -0.1829961 0.041670024 -0.027160808 0.19297725 -0.13475677
-0.20276229 0.10809973 0.062685765 -0.07532132 0.06564477 0.2058275 0.024125755 -0.12203991
0.14023528 0.2185876 -0.0411686 0.16456151 0.020235717 -0.050783828 -0.021167219 -0.2354479
0.11635047 -0.13201103 -0.1445961 -0.033625677 -0.09881711 -0.15437227 -0.051060423 -0.06328943
0.073714286 0.07364238 -0.032405153 0.0533894 -0.16630833 0.2561246 -0.07782 0.118260674
00000000: 9051 b0bd 8bba 3cbe b474 1abd c1e5 083e
00000010: b99d fbbd 9ce7 683e 9621 debd c6dc dbbd
00000020: 79ff 46b9 047c 63be 7c3e 3a3e 0d8b 28be
00000030: b6ff 17bd f080 96bd d610 513e 24b9 e73d
00000040: 4ce2 b63d c9be d6bd d406 fb3d f835 343d
00000050: 66e0 453e 6088 5c3d 7d33 3f3e f5e1 233e
00000060: 4a27 993d cf0b 35be c021 4a3d 5463 3bbe
00000070: 30ae 2a3d 5880 debc d49b 453e aefd 09be
00000080: eba0 4fbe 6463 dd3d 6561 803d 1042 9abd
00000090: c470 863d 72c4 523e 60a3 c53c 0ff0 f9bd
000000a0: d699 0f3e 6ed5 5f3e 68a0 28bd d082 283e
000000b0: 60c5 a53c b402 50bd e066 adbc 4119 71be
000000c0: 2849 ee3d e62d 07be 0011 14be 14bb 09bd
000000d0: a060 cabd c413 1ebe bc24 51bd e49d 81bd
000000e0: 84f7 963d d1d1 963d 44bb 04bd d8ae 5a3d
000000f0: bb4c 2abe c322 833e 1860 9fbd a732 f23d

critic.2.weight f4 [64, 64]
-0.10320935 0.09360586 0.013811607 -0.23180535 0.11040814 0.0056679295 0.015689151 0.11169624
0.03145973 0.081521526 -0.15189536 0.11111119 -0.005255475 -0.0066603813 -0.106498376 -0.058935877
0.113068596 0.16594267 0.105722606 -0.01878852 -0.061344866 0.037470564 -0.05124426 -0.089668885
0.09696649 -0.029286701 -0.10417645 -0.10220669 0.008604993 -0.052325718 -0.0751258 0.09273202
-0.015512484 -0.042950906 0.044639446 0.10804589 0.031032067 -0.03184754 -0.002858118 0.38965037
0.018648013 -0.12887482 0.0035933165 0.05717042 -0.04034681 -0.015051531 -0.025241908 0.0685337
0.111499816 -0.10637918 0.07954872 0.042903043 0.052041553 -0.06272326 -0.06307919 0.07696028
0.0402717 -0.10934835 -0.033601597 0.091972485 -0.039970495 0.40702605 0.00073208765 0.00967637
0.00043858268 -0.09651948 0.035580587 0.014225463 -0.0897541 -0.057108395 0.044391677 0.07046401
-0.14385161 -0.10478989 -0.185908 0.1526283 0.02907489 0.12679212 0.04683242 0.04953125
-0.021226121 0.13130592 -0.006109896 0.0068995007 0.06362296 0.02915121 -0.116494395 0.023495303
0.13094653 -0.034543373 -0.0070416415 -0.11387495 -0.055042285 0.101975374 0.08905261 -0.16536206
0.00682494 0.064127274 -0.22257572 0.17915405 0.019159669 -0.0842823 -0.018572422 0.20132065
-0.0047139837 0.15103273 0.102858685 0.020383863 0.05376949 -0.0022010922 -0.017086972 -0.074620344
-0.045787394 -0.015121837 -0.13362324 0.07706932 -0.08493779 0.08718612 0.012214295 0.04399325
0.003942171 -0.004200384 0.1125259 0.059337903 0.025072245 0.028770491 0.0751235 -0.036075905
-0.022114746 0.020734295 0.071617156 -0.1743782 0.0641696 -0.064160734 -0.07228157 -0.0689974
-0.09379559 0.066022135 -0.305731 0.0433879 0.15293433 -0.054858193 0.04563286 -0.066015504
0.04649484 0.10730588 -0.092764705 0.04567489 0.10778625 -0.0069928253 -0.10445286 0.017291175
0.024851773 -0.03616247 0.0067520207 -0.042552248 -0.04638815 0.09653811 -0.054849148 -0.28724864
0.09870076 -0.042979263 -0.0908062 0.0027798454 -0.09503408 0.04388576 -0.07126787 -0.16845316
-0.043306954 0.05001139 0.12551863 0.12632757 0.01747079 -0.12297158 0.024987116 0.018651685
0.089804456 -0.010073229 -0.102252856 0.061175875 -0.043177105 0.027853234 0.021848101 0.029328909
0.053380683 -0.14180249 -0.08605331 0.10127017 0.12960523 -0.41672516 0.14120461 0.02954663
-0.060385905 -0.09523839 -0.038980447 0.13090916 -0.049290918 -0.07881242 0.15197748 -0.08860421
0.048064277 0.06132611 -0.10356649 0.050876617 -0.022826659 0.083271235 0.06477204 -0.09573704
-0.07543446 -0.16767396 -0.04266847 0.06329042 -0.10676941 -0.004510729 0.044490606 0.10104562
0.0021413958 -0.053994313 -0.08328974 0.062388908 -0.07235935 0.034478083 -0.01172775 -0.39948267
-0.080809414 -0.052761912 -0.17454484 0.16478474 0.008339323 -0.11123815 -0.02708943 -0.33099872
-0.045641214 0.13504042 -0.08277811 -0.08104943 0.05817473 0.05958573 -0.091218546 0.0668118
0.096304104 0.007457967 -0.07491782 0.088863984 0.043064393 -0.040517025 -0.12948939 0.0031327074
-0.10849033 -0.20661077 0.10555971 0.058309633 0.077224076 -0.6382431 0.1390057 0.10685168
00000000: 6c5f d3bd 6eb4 bf3d 144a 623c 625e 6dbe
00000010: aa1d e23d 0aba b93b 8986 803c 00c1 e43d
00000020: ebdb 003d c2f4 a63d 758a 1bbe 438e e33d
00000030: 1f36 acbb 543f dabb d21b dabd bf66 71bd
00000040: 8290 e73d e0ec 293e 1885 d83d 62ea 99bc
00000050: c144 7bbd bc7a 193d 80e5 51bd 52a4 b7bd
00000060: 5e96 c63d aaea efbc 765a d5bd be51 d1bd
00000070: f5fb 0c3c 7e53 56bd 8edb 99bd 49ea bd3d
00000080: 1328 7ebc 4aed 2fbd dad7 363d 2a47 dd3d
00000090: f636 fe3c 9172 02bd 434f 3bbb 4180 c73e
000000a0: b8c3 983c c3f7 03be d97d 6b3b 882b 6a3d
000000b0: b242 25bd b29a 76bc 1ec8 cebc 665b 8c3d
000000c0: 045a e43d 54dd d9bd 70ea a23d 1abb 2f3d
000000d0: 8629 553d 0d75 80bd aa2f 81bd 5a9d 9d3d
000000e0: f0f3 243d 07f2 dfbd d4a1 09bd 125c bc3d
000000f0: 1ab8 23bd b865 d03e 92e9 3f3a a389 1e3c
00000100: 92f1 e539 01ac c5bd f3bc 113d eb11 693c
00000110: ffd0 b7bd 7eea 69bd 0cd4 353d 6f4f 903d
00000120: d64d 13be 159c d6bd ab5e 3ebe 984a 1c3e
00000130: 772e ee3c cbd5 013e 5ad3 3f3d 48e1 4a3d
00000140: 67e2 adbc 0f75 063e 8635 c8bb 3515 e23b
00000150: c14c 823d 85ce ee3c 9d94 eebd 3979 c03c
00000160: d916 063e 5a7d 0dbd 92bd e6bb 4537 e9bd
00000170: 0574 61bd 77d8 d03d 3761 b63d ac54 29be
00000180: bfa3 df3b 2955 833d e4ea 63be 2974 373e
00000190: bdf4 9c3c 339c acbd 3125 98bc 0027 4e3e
000001a0: c377 9abb 53a8 1a3e 93a7 d23d 0ffc a63c
000001b0: 663d 5c3d 3340 10bb faf9 8bbc 8dd2 98bd
000001c0: 908b 3bbd 95c1 77bc 88d4 08be 85d6 9d3d
000001d0: ddf3 adbd a38e b23d 771e 483c 4432 343d
000001e0: 542d 813b 60a3 89bb fb73 e63d 4d0c 733d
000001f0: 4f64 cd3c 18b0 eb3c 59da 993d 54c4 13bd
00000200: fc29 b5bc f8da a93c 04ac 923d 3390 32be
00000210: 5a6b 833d b466 83bd 5c08 94bd 824e 8dbd
00000220: e717 c0bd 9d36 873d c688 9cbe 83b7 313d
00000230: d19a 1c3e fcb2 60bd 86e9 3a3d 2333 87bd
00000240: 6071 3e3d 2fc3 db3d 6cfb bdbd 9815 3b3d
00000250: 0abf dc3d 1224 e5bb 62eb d5bd 39a6 8d3c
00000260: f295 cb3c 191f 14bd 0e40 dd3b 444b 2ebd
00000270: 8001 3ebd c6b5 c53d 80a9 60bd 4112 93be
00000280: a023 ca3d 060b 30bd 9af8 b9bd 112e 363b
00000290: 3aa1 c2bd 8ec1 333d e4f4 91bd fc7e 2cbe
000002a0: a262 31bd bed8 4c3d f587 003e 045c 013e
000002b0: e71e 8f3c 86d8 fbbd c8b1 cc3c 6bcb 983c
000002c0: 66eb b73d 2f0a 25bc f269 d1bd 8e93 7a3d
000002d0: 7ada 30bd 772c e43c cafa b23c 2e43 f03c
000002e0: b4a5 5a3d ac34 11be b83c b0bd bc66 cf3d
000002f0: 3cb7 043e 005d d5be f197 103e c60b f23c
00000300: 3657 77bd 580c c3bd f6a9 1fbd 0d0d 063e
00000310: 46e5 49bd 6868 a1bd fc9f 1b3e 2076 b5bd
00000320: 0cdf 443d 1631 7b3d ab1a d4bd 0064 503d
00000330: f9fe babc 1c8a aa3d 34a7 843d c811 c4bd
00000340: 627d 9abd b9b2 2bbe 22c5 2ebd 689e 813d
00000350: eca9 dabd bdce 93bb c83b 363d 02f1 ce3d
00000360: a956 0c3b 2429 5dbd d093 aabd 838b 7f3d
00000370: 2431 94bd e438 0d3d c025 40bc fe88 ccbe
00000380: 687f a5bd e01c 58bd e2bb 32be 55bd 283e
00000390: a8a1 083c d4d0 e3bd a7ea ddbc aa78 a9be
000003a0: 48f2 3abd 0948 0a3e 9287 a9bd 3efd a5bd
000003b0: a048 6e3d 2b10 743d cad0 babd a0d4 883d
000003c0: 163b c53d f661 f43b 846e 99bd 52fe b53d
000003d0: 4a64 303d 2ef5 25bd de98 04be 1c4e 4d3b
000003e0: 2e30 debd c691 53be b02f d83d 15d6 6e3d
000003f0: a827 9e3d e663 23bf 8357 0e3e 0ed5 da3d

critic.2.bias f4 [64]
0.0141009325 -0.06885242 0.010598589 -0.15200077 -0.11687896 -0.019013947 -0.058672708 -0.10702616
-0.030370388 0.09933041 0.0630098 -0.084583685 0.00090018875 0.15998562 -0.004311805 0.08553823
0.031254847 -0.13879542 -0.11186171 -0.00036170924 0.0054365457 -0.09100804 0.12029684 -0.13941835
-0.04329545 0.08767163 -0.0406952 -0.01903002 0.008373749 0.0038260382 -0.04032339 -0.04554918
-0.15322554 0.10002498 0.07524113 -0.04597697 -0.043349504 0.08199786 0.09945576 -0.031566683
-0.033508778 0.07769453 0.09535377 0.15205462 0.026893368 -0.027956532 0.096395865 -0.0013138028
-0.007242219 -0.075690836 0.07940636 -0.045372564 0.047024984 -0.10384108 -0.0017710256 -0.068651095
-0.07263013 0.03028314 0.07927481 -0.036302697 -0.024958028 -0.07774551 -0.10976613 0.011320853
00000000: 9907 673c 7f02 8dbd b4a5 2d3c 17a6 1bbe
00000010: 3c5e efbd 23c3 9bbc cb52 70bd 8830 dbbd
00000020: 52cb f8bc be6d cb3d 480b 813d 363a adbd
00000030: a5fa 6b3a 45d3 233e 0b4a 8dbb ab2e af3d
00000040: 1505 003d 6320 0ebe c117 e5bd cba3 bdb9
00000050: 0d25 b23b 6c62 babd 315e f63d afc3 0ebe
00000060: 9256 31bd 2f8d b33d 03b0 26bd d8e4 9bbc
00000070: 0d32 093c 45be 7a3b 242a 25bd c791 3abd
00000080: 28e7 1cbe e6d9 cc3d 0618 9a3d 5952 3cbd
00000090: 408f 31bd 7eee a73d 76af cb3d 114c 01bd
000000a0: 8040 09bd 4f1e 9f3d d648 c33d 35b4 1b3e
000000b0: 7b4f dc3c 1905 e5bc 326b c53d e833 acba
000000c0: 2350 edbb cc03 9bbd cd9f a23d 95d8 39bd
000000d0: 459d 403d a2aa d4bd c221 e8ba f298 8cbd
000000e0: 1bbf 94bd 5914 f83c d55a a23d 23b2 14bd
000000f0: c774 ccbc 0a39 9fbd 11cd e0bd 197b 393c

critic.4.weight f4 [1, 64]
-0.21178833 -0.23040804 -0.21657214 -0.25779948 -0.088062376 0.2740593 0.21612567 -0.28983355
-0.18805487 0.19826885 -0.056114137 0.17605977 -0.0861956 -0.13673374 -0.21458961 0.14676656
-0.35732436 0.24022326 0.30269894 -0.065165065 -0.36142138 -0.08837295 0.2355894 -0.023519788
0.41795725 0.1302454 0.18305534 -0.1155846 -0.24295162 0.14287011 0.19361734 0.1808649
-0.2696071 0.09781836 -0.14090966 -0.037606202 0.2793511 -0.13411471 0.07005433 -0.18910378
0.14169346 0.25019488 0.10042673 0.15285762 0.3246925 -0.19024852 0.19879016 -0.0053615873
0.1418932 -0.14700454 0.045214828 0.060453672 -0.25439578 -0.24646474 -0.17155308 -0.11552968
0.3165984 0.052107934 0.14938802 -0.19022925 0.5187423 0.13259152 -0.23049057 0.2653322
00000000: 0adf 58be 16f0 6bbe 16c5 5dbe 4bfe 83be
00000010: 0c5a b4bd 8051 8c3e 0c50 5d3e 1065 94be
00000020: 7591 40be fd06 4b3e f0d7 65bd 0349 343e
00000030: 5287 b0bd ee03 0cbe 61bd 5bbe f949 163e
00000040: 38f3 b6be 16fd 753e 5bfb 9a3e 4375 85bd
00000050: 390c b9be e1fc b4bd 593e 713e 92ac c0bc
00000060: 7efe d53e 0d5f 053e dc72 3b3e 9eb7 ecbd
00000070: 4fc8 78be 8b4c 123e a043 463e a634 393e
00000080: f109 8abe fe54 c83d 9f4a 10be f608 1abd
00000090: 1b07 8f3e 5e55 09be a578 8f3d 6ca4 41be
000000a0: 1718 113e 8b19 803e 88ac cd3d b586 1c3e
000000b0: 183e a63e 82d0 42be a68f 4b3e 41b0 afbb
000000c0: 734c 113e 5c88 16be 2f33 393d 459e 773d
000000d0: 2a40 82be 4161 7cbe 9cab 2fbe d39a ecbd
000000e0: 2f19 a23e 216f 553d 2cf9 183e 75cb 42be
000000f0: 4ccc 043f 12c6 073e b805 6cbe 9fd9 873e
