PPO_preTrained/DC_agent/PPO_DC_agent_42_0.pth (torch, 47629 bytes, 11 tensors)

actor.0.weight f4 [64, 17]
0.18542781 0.20130649 -0.056819424 0.22279596 -0.053140417 0.048941433 -0.118079685 0.14243695
0.21380556 -0.17793095 0.21081105 0.04539281 0.17918748 0.03284675 0.1169478 -0.034243852
0.18696728 0.02715666 -0.12214876 0.05306058 -0.120668456 -0.037203643 -0.107431896 0.15213178
-0.20037223 -0.12060645 -0.07741269 -0.15452258 0.017908445 -0.24834798 0.21164478 -0.21450575
0.17921653 0.0350678 -0.08494802 0.1436421 0.03152846 0.18970256 0.020227827 -0.082762636
0.058869977 -0.07205671 0.09575053 0.21028297 0.13398542 -0.11117787 0.13425572 0.03729861
0.1176397 -0.16282518 -0.2350766 -0.097679295 -0.19026485 0.19489294 0.065611765 0.09634745
0.0724464 -0.008328769 0.1855689 -0.17650275 0.011015941 -0.16951104 0.071678266 -0.08508317
0.081683435 -0.05740729 0.20646636 -0.14615187 -0.14464775 -0.14465648 0.21814692 0.08082527
0.23338008 -0.2001589 -0.24056529 -0.18975109 -0.16315106 0.09823665 0.08684614 0.20152876
-0.12525155 -0.1653394 0.1286841 -0.09803398 0.14720064 -0.057553858 0.13874152 -0.18844241
-0.122395545 0.07394341 0.051273853 -0.061836585 0.14456809 0.16487795 -0.17588037 -0.12948206
0.22208065 -0.0818394 -0.08598286 -0.23467617 -0.13889292 0.060586274 -0.032013044 -0.17605321
0.0056890845 -0.16567159 -0.20576641 -0.13355531 -0.21227011 -0.15443167 0.24244076 0.04580891
0.074739695 -0.22620916 -0.15929104 -0.080729395 0.03792557 -0.21341226 -0.10450205 -0.14519846
0.0006721318 -0.09024829 -0.016806692 -0.16434935 -0.16647528 -0.14149572 -0.083019316 -0.19142874
0.2033588 -0.048134595 0.20867684 0.07556975 -0.20537843 0.1678432 -0.06673242 -0.09297022
-0.20132166 -0.24111937 0.069392025 -0.052980423 0.094424725 -0.19904011 0.18006551 -0.17803419
-0.04187943 0.050658345 0.12520945 0.19580153 0.22094005 -0.19231187 0.061038285 -0.10432087
-0.026578218 -0.1771929 0.2248835 -0.17381263 0.13386798 0.08958561 0.08310852 -0.1267048
0.22483285 0.05754418 0.03535111 -0.20925376 0.10792949 -0.027683377 -0.09823592 0.20547959
0.06827065 -0.13174234 -0.12275672 -0.011582464 0.1354225 -0.061976045 -0.13838473 -0.08305459
-0.18119226 0.086496085 0.18773234 -0.22833282 0.05632907 0.12529191 0.04397884 -0.08637291
0.12658957 0.12745565 0.09069067 -0.042618707 -0.06422374 0.025946677 -0.042844906 -0.07227588
0.15503043 0.208435 -0.02401039 -0.05430296 0.003539145 -0.014481381 0.058308303 0.06796664
-0.22028463 -0.08950479 0.2042464 0.09448096 -0.012063131 -0.14622612 -0.14838453 -0.21725537
-0.0790575 0.081905305 0.15464595 0.111978054 -0.21438792 -0.14585182 -0.038276166 0.23461673
0.035084605 -0.06280963 0.100340694 -0.09237735 -0.15698256 0.17534785 -0.11188803 -0.05025129
-0.24292728 0.16067457 0.18209615 0.08674283 -0.17077498 -0.24099961 -0.19862172 0.1791652
0.114581026 0.19529969 0.08913179 0.057740867 -0.005758281 -0.18799593 -0.20865549 -0.22821355
0.09838943 -0.12055447 -0.049740236 -0.14107068 -0.045127872 -0.17220898 -0.15941052 0.07903153
-0.07296154 0.14771569 -0.07918835 -0.1731785 -0.038643867 -0.13266249 -0.07795894 -0.23089285
00000000: cae0 3d3e 4a23 4e3e 7cbb 68bd a024 643e
00000010: c4a9 59bd d076 483d c3d3 f1bd feda 113e
00000020: d8ef 5a3e 8833 36be dade 573e d0ed 393d
00000030: ec7c 373e 508a 063d 5482 ef3d 4843 0cbd
00000040: 5a74 3f3e a577 de3c 2129 fabd 0d56 593d
00000050: 0621 f7bd d962 18bd 4105 dcbd 6fc8 1b3e
00000060: 612e 4dbe 8400 f7bd 8b8a 9ebd 2b3b 1ebe
00000070: bbb4 923c ef4e 7ebe 69b9 583e 65a7 5bbe
00000080: 8a84 373e 41a3 0f3d 3af9 adbd ea16 133e
00000090: fd23 013d 6341 423e d4b4 a53c 757f a9bd
000000a0: a521 713d 7892 93bd db18 c43d 6b54 573e
000000b0: 7933 093e 39b1 e3bd 557a 093e 6dc6 183d
000000c0: 15ed f03d a5bb 26be ecb7 70be 150c c8bd
000000d0: cad4 42be 0492 473e 765f 863d d051 c53d
000000e0: c75e 943d 6475 08bc c605 3e3e 23bd 34be
000000f0: 357c 343c 4d94 2dbe 0ecc 923d 1640 aebd
00000100: a549 a73d e823 6bbd eb6b 533e d6a8 15be
00000110: 8a1e 14be d420 14be e861 5f3e b887 a53d
00000120: 30fb 6e3e 74f6 4cbe bf56 76be 1c4e 42be
00000130: 1211 27be 4c30 c93d 64dc b13d 8e5d 4e3e
00000140: f141 00be bb4e 29be c4c5 033e 0ac6 c8bd
00000150: c4bb 163e 98bd 6bbd 4212 0e3e 0cf7 40be
00000160: 84aa fabd a46f 973d 8804 523d 5c48 7dbd
00000170: a809 143e c4d5 283e fc19 34be f296 04be
00000180: 1c69 633e 6a9b a7bd c817 b0bd f34e 70be
00000190: f239 0ebe 5029 783d 1c20 03bd 4b47 34be
000001a0: 806b ba3b d0a5 29be 6eb4 52be b9c2 08be
000001b0: 565d 59be 5623 1ebe 6442 783e 20a2 3b3d
000001c0: 2011 993d 60a3 67be 311d 23be 7455 a5bd
000001d0: d857 1b3d be88 5abe 2c05 d6bd e8ae 14be
000001e0: 0032 303a 18d4 b8bd 30ae 89bc 324b 28be
000001f0: 7f78 2abe 41e4 10be 0806 aabd e505 44be
00000200: 4a3d 503e c828 45bd 62af 553e 50c4 9a3d
00000210: b94e 52be 16df 2b3e 02ab 88bd 2c67 bebd
00000220: 4427 4ebe ffe7 76be 681d 8e3d 0002 59bd
00000230: c061 c13d 2cd1 4bbe 1863 383e 984e 36be
00000240: c489 2bbd 207f 4f3d e836 003e 3280 483e
00000250: 1c3e 623e 67ed 44be 4803 7a3d 2ea6 d5bd
00000260: 90ba d9bc 0e72 35be dc47 663e f0fb 31be
00000270: b014 093e a978 b73d cd34 aa3d e7be 01be
00000280: 953a 663e 72b3 6b3d 53cc 103d 9e46 56be
00000290: 230a dd3d 40c8 e2bc ea2f c9bd 3e69 523e
000002a0: 7cd1 8b3d 77e7 06be e067 fbbd 60c4 3dbc
000002b0: 32ac 0a3e 98da 7dbd bab4 0dbe 8618 aabd
000002c0: 778a 39be dc24 b13d e83c 403e 14d0 69be
000002d0: 50b9 663d 864c 003e 2823 343d 48e4 b0bd
000002e0: b2a0 013e bc83 023e 08bc b93d f490 2ebd
000002f0: bc87 83bd 208e d43c 247e 2fbd 6005 94bd
00000300: 4cc0 1e3e fc6f 553e 70b1 c4bc c86c 5ebd
00000310: 00f1 673b 5043 6dbc b0d4 6e3d 1832 8b3d
00000320: 4b92 61be 4a4e b7bd f825 513e 3c7f c13d
00000330: 70a4 45bc 4dbc 15be 1df2 17be 3178 5ebe
00000340: e6e8 a1bd f8bd a73d 825b 1e3e c054 e53d
00000350: 8288 5bbe 2e5a 15be 78c7 1cbd 5e3f 703e
00000360: e0b4 0f3d 56a2 80bd 6c7f cd3d 5630 bdbd
00000370: 09c0 20be 638e 333e 8d25 e5bd 4cd4 4dbd
00000380: eec1 78be e087 243e 6a77 3a3e 3aa6 b13d
00000390: a3df 2ebe 9ac8 76be 7e63 4bbe 1577 373e
000003a0: 75a9 ea3d a4fc 473e ba8a b63d b081 6c3d
000003b0: f6af bcbb 0182 40be c9a9 55be d0b0 69be
000003c0: 6680 c93d 43e5 f6bd 6bbc 4bbd d574 10be
000003d0: 01d8 38bd 8d57 30be 833c 23be 48db a13d
000003e0: dc6c 95bd c842 173e 802d a2bd b455 31be
000003f0: 0849 1ebd add8 07be f0a8 9fbd 2d6f 6cbe

actor.0.bias f4 [64]
-0.12571529 -0.24677153 0.084401816 0.13280939 -0.20821975 0.08696988 0.20505834 0.014691979
-0.14611772 0.20463665 0.10356656 0.16060737 -0.16402332 0.13939843 -0.16748886 0.23998761
-0.099779375 0.14621161 0.048565716 0.06569695 -0.037194043 0.09961796 -0.10108203 -0.23451504
-0.08599256 0.1896517 -0.06383695 0.07623342 -0.08857623 0.1819379 0.14515519 0.08561838
-0.1256959 -0.19818309 0.010342727 -0.1422854 0.19941127 -0.23260726 0.10838148 0.24178717
0.12146872 0.08269948 -0.23335484 0.2337127 -0.038477637 -0.22662732 0.23942214 -0.09869519
-0.017158821 0.2197783 -0.17225477 -0.17159152 0.039440483 -0.03246434 0.05568086 -0.20341592
0.010655781 -0.10787007 -0.12231408 -0.22029887 0.1284744 0.045676388 -0.20505011 0.1945022
00000000: 82bb 00be adb1 7cbe dcda ac3d 2fff 073e
00000010: 8f37 55be 441d b23d d0fa 513e a0b6 703c
00000020: e29f 15be 458c 513e b41a d43d 4276 243e
00000030: bbf5 27be 76be 0e3e 3382 2bbe 50bf 753e
00000040: 2159 ccbd 7fb8 153e d8ec 463d 1f8c 863d
00000050: c858 18bd 8004 cc3d 1804 cfbd b624 70be
00000060: de1c b0bd 0e34 423e f2bc 82bd 4420 9c3d
00000070: 7467 b5bd ee4d 3a3e 90a3 143e b058 af3d
00000080: 6db6 00be 82f0 4abe 8b74 293c 44b3 11be
00000090: 7832 4c3e 9930 6ebe 1cf7 dd3d 0e97 773e
000000a0: 98c4 f83d 585e a93d 92f4 6ebe 6252 6f3e
000000b0: ba9a 1dbd fe10 68be 142b 753e b420 cabd
000000c0: a890 8cbc 900d 613e 8e63 30be b0b5 2fbe
000000d0: 588c 213d 54f9 04bd 9d11 643d 434c 50be
000000e0: 9695 2e3c fcea dcbd ce7f fabd 0796 61be
000000f0: cb8e 033e 2a17 3b3d a8f8 51be 962b 473e

actor.2.weight f4 [64, 64]
0.03622856 0.024669189 -0.07191749 0.023187611 0.11896838 0.08426142 -0.095884636 0.112628505
0.008214681 0.057676345 0.095610395 0.1050895 -0.098915994 0.112809926 -0.08723673 0.010844798
-0.0866598 -0.033538688 -0.0071543874 -0.016428072 -0.021221012 0.011332856 0.1218282 0.07407837
0.07224939 0.046244707 0.0952985 -0.007242677 0.0075607197 0.024250612 -0.110490456 -0.09922047
0.011414718 -0.047432236 -0.0010413172 -0.027208328 0.02093187 0.08475593 -0.039981194 0.10158172
0.09722108 -0.094463125 -0.09800242 -0.097622685 -0.07385888 -0.047185488 -0.007934644 -0.028925002
-0.061682023 -0.03112829 -0.035757255 0.121155635 -0.04780265 -0.09097426 0.05343625 -0.005746144
0.0970611 0.07662994 0.11744264 -0.0927384 0.081832066 0.10688161 -0.063203044 0.11631057
0.09382002 0.001254125 0.060156144 -0.044145484 -0.108908325 0.03171219 0.03715098 -0.08158022
0.060739636 -0.10785554 0.10769266 0.12116344 0.03414698 -0.07597044 0.0601377 0.021187294
0.033559218 0.038575668 0.09528409 -0.053615022 -0.028003458 0.03397356 0.013734812 0.100656204
-0.06503365 -0.0071000415 0.023471322 -0.033083946 0.082715474 0.013787368 -0.1154141 -0.013656655
-0.055071563 0.012031725 -0.014462825 -0.12410642 -0.022892844 -0.011172454 -0.03697449 0.114732906
-0.027160216 0.0801875 0.031079395 -0.10300277 0.026177168 0.1034773 -0.08187723 -0.08091152
0.12224148 0.11026362 -0.06448031 0.075332776 -0.015876831 -0.12312652 0.00927701 0.040272072
-0.03752951 0.043600112 -0.107246615 0.08725384 0.10645214 0.068954565 0.021301087 0.041079983
-0.092719585 -0.028958159 -0.009662633 -0.06844688 -0.09460361 0.08180109 0.087106764 -0.115799636
0.037500247 0.052268576 0.116469935 0.0700431 0.11264098 -0.04189997 0.086751334 0.103951275
-0.114374146 -0.10133208 0.0230245 0.06598057 -0.064377755 0.016042989 -0.0024576557 0.03390089
-0.06484138 0.07541466 0.080850065 -0.08900839 0.005480572 -0.0019293613 0.037863225 0.11872417
0.03414606 -0.026126564 0.11258605 -0.045290366 -0.03402023 0.012264589 -0.092912495 0.015878348
-0.087085545 0.015128762 0.009699761 0.01297638 -0.1041819 -0.11644693 0.05979091 0.1094756
-0.10864544 0.04089679 -0.0857283 0.005560227 0.114018604 0.09255129 -0.089116365 0.07959759
0.06664596 -0.0024679224 0.1252707 -0.052482605 -0.026813298 -0.061373744 0.01571092 0.035068873
0.011787799 -0.07215742 -0.058096595 0.035171315 -0.10777554 -0.017639045 -0.0045967167 -0.04881773
0.047317512 0.009257538 0.08958584 -0.009273666 -0.077064544 0.08900627 0.021119064 -0.037627526
-0.08412018 0.028746637 -0.1173913 0.03474941 0.063633345 -0.11147782 -0.08000629 -0.09172228
0.10263716 0.10153297 0.00965288 0.11917849 -0.04614351 -0.119525015 0.045489617 0.042455815
0.12721546 -0.0018639527 0.091341294 0.07479271 0.08864334 -0.12886897 0.10110448 -0.10838437
0.113891646 -0.00700785 -0.10894938 0.04079625 -0.021616403 -0.11410193 -0.04714503 0.011060375
0.095528066 -0.03962364 0.06998552 0.017481338 0.0060412562 0.025745895 -0.08386135 -0.10572754
-0.041731562 -0.11465399 -0.06363735 0.008285791 -0.08415392 -0.057949055 -0.02063303 -0.016226739
00000000: 6664 143d 0a17 ca3c 7a49 93bd f2f3 bd3c
00000010: b2a5 f33d 4091 ac3d 2a5f c4bd c6a9 e63d
00000020: df96 063c 083e 6c3d 62cf c33d 2a39 d73d
00000030: 7894 cabd e408 e73d 2ca9 b2bd 61ae 313c
00000040: b17a b1bd dd5f 09bd 5a6f eabb 2a94 86bc
00000050: b0d7 adbc 71ad 393c 1081 f93d 67b6 973d
00000060: 7df7 933d 176b 3d3d dc2b c33d fa53 edbb
00000070: eabf f73b 38a9 c63c d248 e2bd 1a34 cbbd
00000080: cc04 3b3c 4e48 42bd cf7c 88ba 00e4 debc
00000090: 5079 ab3c 8494 ad3d 52c3 23bd 140a d03d
000000a0: d81b c73d e275 c1bd 7eb5 c8bd 67ee c7bd
000000b0: 5343 97bd 9245 41bd 4f00 02bc 20f4 ecbc
000000c0: 4aa6 7cbd c100 ffbc 3376 12bd 7220 f83d
000000d0: b6cc 43bd b650 babd f8df 5a3d 264a bcbb
000000e0: f8c7 c63d 28f0 9c3d c485 f03d a1ed bdbd
000000f0: 9297 a73d bfe4 da3d 9970 81bd 3c34 ee3d
00000100: b624 c03d 7461 a43a 4a66 763d e5d1 34bd
00000110: 540b dfbd a4e4 013d a02b 183d 8813 a7bd
00000120: 20ca 783d 5ee3 dcbd f88d dc3d 8a24 f83d
00000130: b4dd 0b3d 6496 9bbd f352 763d fa90 ad3c
00000140: 6475 093d 8501 1e3d 4e24 c33d 6d9b 5bbd
00000150: 8267 e5bc dc27 0b3d fa07 613c d724 ce3d
00000160: 5d30 85bd 77a7 e8bb ee46 c03c 0883 07bd
00000170: bb66 a93d 6ae4 613c 3a5e ecbd 2ac0 5fbc
00000180: b892 61bd b620 453c 7cf5 6cbc 822b febd
00000190: c689 bbbc ab0c 37bc 9072 17bd 16f9 ea3d
000001a0: 1a7f debc 5839 a43d 379a fe3c 1ef3 d2bd
000001b0: 8071 d63c e8eb d33d 40af a7bd f0b4 a5bd
000001c0: be59 fa3d e5d1 e13d 410e 84bd 1248 9a3d
000001d0: 2110 82bc c229 fcbd 9afe 173c 54f4 243d
000001e0: 8bb8 19bd 0896 323d 1da4 dbbd 24b2 b23d
000001f0: 9403 da3d 0d38 8d3d 9e7f ae3c 7c43 283d
00000200: c4e3 bdbd a939 edbc 0550 1ebc e12d 8cbd
00000210: 8abf c1bd 5487 a73d 0865 b23d 5c28 edbd
00000220: dc99 193d 9317 563d ca87 ee3d c272 8f3d
00000230: 50b0 e63d 4e9f 2bbd afaa b13d 68e4 d43d
00000240: fe3c eabd 3287 cfbd e09d bc3c d220 873d
00000250: 7cd8 83bd 966c 833c 9f10 21bb a9db 0a3d
00000260: 8fcb 84bd 0073 9a3d b894 a53d 084a b6bd
00000270: 5f96 b33b 9fe2 fcba 7816 1b3d a825 f33d
00000280: bddc 0b3d 6007 d6bc 8493 e63d 6482 39bd
00000290: cc58 0bbd 6af1 483c e848 bebd 4f13 823c
000002a0: e859 b2bd a1de 773c bfeb 1e3c e29a 543c
000002b0: 525d d5bd ba7b eebd 50e7 743d be34 e03d
000002c0: 8081 debd 6483 273d 5292 afbd 9132 b63b
000002d0: 9682 e93d 888b bd3d a482 b6bd 1004 a33d
000002e0: ad7d 883d debc 21bb f646 003e 00f8 56bd
000002f0: 90a7 dbbc 0963 7bbd 30b4 803c 61a4 0f3d
00000300: 9d21 413c 45c7 93bd b2f6 6dbd cc0f 103d
00000310: 6cb9 dcbd c27f 90bc 0ea0 96bb 1af5 47bd
00000320: 02d0 413d eeac 173c c878 b73d 93f0 17bc
00000330: 04d4 9dbd eb48 b63d e301 ad3c 521f 1abd
00000340: 3347 acbd 117e eb3c da6a f0bd 6655 0e3d
00000350: 3352 823d 7c4e e4bd 56da a3bd e4d8 bbbd
00000360: 6e33 d23d 85f0 cf3d 1d27 1e3c da13 f43d
00000370: fa00 3dbd 88c9 f4bd 5253 3a3d 26e6 2d3d
00000380: c544 023e e04f f4ba 2511 bb3d ec2c 993d
00000390: a48a b53d 3af6 03be de0f cf3d a0f8 ddbd
000003a0: 0640 e93d 1ba2 e5bb da20 dfbd f819 273d
000003b0: e214 b1bc 46ae e9bd 261b 41bd 9336 353c
000003c0: 38a4 c33d 664c 22bd 9154 8f3d 0635 8f3c
000003d0: bbf5 c53b 0ee9 d23c 80bf abbd ae87 d8bd
000003e0: b7ee 2abd b6cf eabd 4d54 82bd 20c1 073c
000003f0: e458 acbd fd5b 6dbd 9a06 a9bc f0ed 84bc

actor.2.bias f4 [64]
0.02188117 0.049668554 0.07374247 0.08579193 0.090795696 0.052036677 0.09285031 0.08009764
-0.020728106 0.011801474 -0.06660614 -0.092911325 0.12040302 -0.09246222 -0.07661077 -0.11816594
-0.09633364 0.028180731 0.061748233 -0.1041445 0.007676268 -0.09392183 0.024025213 0.073494524
-0.04943717 -0.05469694 0.08264238 -0.08137445 -0.0265431 -0.10659388 0.08690945 0.040376846
-0.051400453 0.090145096 0.12148551 0.051509064 -0.08644184 -0.026234364 0.10131307 0.09150779
-0.040905345 0.08037251 -0.08309463 0.03327064 0.11178802 0.022356339 -0.098474376 0.036445536
0.06649432 0.085919976 -0.08473047 -0.023286 -0.0077920216 -0.023688704 -0.02538193 -0.043406658
0.042644694 0.057699766 -0.026439276 0.098154135 -0.000474295 0.03088344 0.030444996 -0.042259775
00000000: 2440 b33c 4171 4b3d 4b06 973d aeb3 af3d
00000010: 18f3 b93d 6924 553d 4e28 be3d 3b0a a43d
00000020: fdcd a9bc f85a 413c cd68 88bd 4b48 bebd
00000030: dc95 f63d d55c bdbd 1be6 9cbd fc00 f2bd
00000040: 924a c5bd 47db e63c b7eb 7c3d b649 d5bd
00000050: 3489 fb3b 175a c0bd 86d0 c43c 4c84 963d
00000060: a17e 4abd e609 60bd 6840 a93d a6a7 a6bd
00000070: ea70 d9bc e44d dabd 95fd b13d 3162 253d
00000080: 4889 52bd fe9d b83d 65cd f83d 2bfb 523d
00000090: 6b08 b1bd 73e9 d6bc 3a7d cf3d 7068 bb3d
000000a0: 5d8c 27bd 589a a43d 842d aabd cb46 083d
000000b0: 1ef1 e43d a424 b73c efac c9bd ea47 153d
000000c0: 2d2e 883d d0f6 af3d 2b87 adbd 48c2 bebc
000000d0: 3754 ffbb d00e c2bc c4ed cfbc 2ecb 31bd
000000e0: 34ac 2e3d 9756 6c3d 2e97 d8bc 0905 c93d
000000f0: ccaa f8b9 45ff fc3c c967 f93c 9618 2dbd

actor.4.weight f4 [3, 64]
-0.0040400624 -0.016403047 0.04398978 -0.06783334 -0.05381686 -0.11780353 -0.054111596 0.040630683
0.09909492 -0.123895645 -0.043838587 0.07756318 -0.06262687 0.08453645 0.0049994 -0.11798687
0.02291524 -0.074890085 0.022146525 -0.11100369 0.11795132 -0.052248206 0.082457 -0.07995159
-0.10852514 0.05065812 0.07355774 -0.0002730218 -0.1008125 -0.033019762 -0.08514132 0.03225011
0.021416252 0.08266052 0.12335872 -0.05881935 0.09696183 0.08264969 0.022016756 -0.122076154
-0.08257189 0.054751854 0.09107331 0.06583339 0.011640874 -0.076665245 -0.10769862 -0.07483655
0.0017886915 0.014824417 0.09519045 -0.093563855 0.06559356 0.101774246 -0.11234523 -0.06679652
-0.035487894 0.025412558 0.111112885 0.02467653 0.08329037 0.102784544 0.09829847 -0.11500977
-0.08169744 -0.006877662 0.0017960763 0.011583904 0.09998346 0.11246655 -0.03686432 -0.052267876
0.010360134 0.017497282 0.075311296 0.046171557 0.028967977 0.040009953 0.09407073 0.0760756
-0.014022885 -0.08914405 0.084847204 -0.011650678 -0.089416735 -0.021514144 0.087899506 -0.047312696
-0.02479171 0.039392915 0.08339698 -0.02009976 -0.09028027 -0.044740427 -0.041771043 0.016174594
-0.085037105 0.10906136 0.033662125 -0.08586135 0.065925695 0.0064727846 0.1168762 -0.004104334
-0.004524023 -0.12194724 -0.09928159 0.0014887843 0.10636577 -0.07456715 0.022235442 -0.07682561
-0.09735674 -0.042394314 -0.0815062 -0.099310406 -0.04281654 -0.012273886 0.061460674 0.05654584
-0.0010946285 -0.023928106 -0.027220583 -0.09882219 0.080452934 0.10819299 -0.11157369 -0.116944894
-0.114027746 -0.016022258 -0.00077087653 -0.08048953 0.06999996 0.0097133815 -0.056965437 -0.119905375
0.0974244 0.1247723 0.01145503 -0.05974923 0.081751995 0.07259411 -0.017233688 0.116866834
-0.092199296 -0.014054545 0.105525516 -0.077357754 -0.03792621 -0.052886676 -0.051420204 0.10740066
0.083215296 -0.1132678 -0.07191891 -0.0012507299 -0.039329212 -0.07184134 -0.120075494 0.09229252
0.06729602 0.036297742 -0.027777083 -0.1214849 -0.007604562 0.045375388 -0.034452 0.09808187
0.028577996 -0.0058609294 0.044671398 0.06452938 -0.09111076 0.037808366 -0.113027796 -0.024777278
-0.040865175 0.09658241 -0.12256255 0.04418995 -0.114130616 0.053407803 0.031288087 -0.048962113
0.032872383 0.115834564 0.07457349 -0.11399976 -0.032052763 0.11363779 0.019755125 0.01568723
00000000: 8062 84bb af5f 86bc a12e 343d 35ec 8abd
00000010: 116f 5cbd fa42 f1bd 1fa4 5dbd 5c6c 263d
00000020: 47f2 ca3d 00bd fdbd 1790 33bd 72d9 9e3d
00000030: 8442 80bd 7221 ad3d 02d2 a33b 1aa3 f1bd
00000040: beb8 bb3c f95f 99bd a16c b53c e755 e3bd
00000050: 7690 f13d 3702 56bd 37df a83d a9bd a3bd
00000060: 6e42 debd e47e 4f3d 71a5 963d 5e24 8fb9
00000070: c976 cebd bb3f 07bd 935e aebd b118 043d
00000080: 2371 af3c eb49 a93d 7fa3 fc3d 8fec 70bd
00000090: ed93 c63d 3e44 a93d 7c5c b43c 1003 fabd
000000a0: 731b a9bd 7b43 603d a584 ba3d a8d3 863d
000000b0: 5db9 3e3c ab02 9dbd 1891 dcbd e843 99bd
000000c0: 8772 ea3a 1de2 723c 36f3 c23d 689e bfbd
000000d0: eb55 863d 046f d03d 4215 e6bd 9dcc 88bd
000000e0: c15b 11bd ff2d d03c 278f e33d 6f26 ca3c
000000f0: 2494 aa3d b480 d23d b550 c93d 3e8a ebbd
00000100: fd50 a7bd 035e e1bb 526a eb3a 6aca 3d3c
00000110: 21c4 cc3d dd54 e63d 0bff 16bd d716 56bd
00000120: 8dbd 293c 7656 8f3c cf3c 9a3d 631e 3d3d
00000130: 404e ed3c 7ae1 233d 28a8 c03d 86cd 9b3d
00000140: 3ec0 65bc 2891 b6bd 5fc4 ad3d 7ce2 3ebc
00000150: 1f20 b7bd 6e3e b0bc a804 b43d f5ca 41bd
00000160: fc17 cbbc 775a 213d 09cc aa3d 40a8 a4bc
00000170: dde4 b8bd bd41 37bd 1d18 2bbd 9580 843c
00000180: ef27 aebd 905b df3d 4ce1 093d 13d8 afbd
00000190: 0d04 873d a719 d43b ca5c ef3d a67d 86bb
000001a0: 413e 94bb 79bf f9bd 2554 cbbd 5023 c33a
000001b0: 4cd6 d93d a9b6 98bd 1a27 b63c bf56 9dbd
000001c0: f862 c7bd a9a5 2dbd b9ec a6bd 4163 cbbd
000001d0: 6560 2fbd 6918 49bc 30be 7b3d 9c9c 673d
000001e0: a379 8fba e004 c4bc b3fd debc 4a63 cabd
000001f0: 82c4 a43d 4994 dd3d bf80 e4bd ce80 efbd
00000200: 6187 e9bd 1c41 83bc a614 4aba b2d7 a4bd
00000210: 245c 8f3d e024 1f3c 9754 69bd f390 f5bd
00000220: 7286 c73d 9f88 ff3d e1ad 3b3c 9cbb 74bd
00000230: 976d a73d 39ac 943d aa2d 8dbc e157 ef3d
00000240: fcd2 bcbd 0945 66bc c31d d83d be6d 9ebd
00000250: 8358 1bbd b39f 58bd fe9d 52bd e1f4 db3d
00000260: c86c aa3d f3f8 e7bd 394a 93bd 88ef a3ba
00000270: ab17 21bd 8d21 93bd 24ea f5bd dc03 bd3d
00000280: 7fd2 893d f1ac 143d c48c e3bc 13cd f8bd
00000290: b12f f9bb 8bdb 393d 8a1d 0dbd 26df c83d
000002a0: 671c ea3c 0a0d c0bb 5bf9 363d fb27 843d
000002b0: 4798 babd f2dc 1a3d 1e7b e7bd b8f9 cabc
000002c0: 3e62 27bd 00cd c53d 1302 fbbd 8500 353d
000002d0: 50bd e9bd 24c2 5a3d f027 003d 7f8c 48bd
000002e0: 31a5 063d ac3a ed3d fcb9 983d b578 e9bd
000002f0: c249 03bd eeba e83d 80d5 a13c 8182 803c

actor.4.bias f4 [3]
0.007816588 -0.04239693 -0.032448217
00000000: 2511 003c 67a8 2dbd 6ce8 04bd

critic.0.weight f4 [64, 17]
0.016096115 0.18256932 -0.06835826 -0.0634699 0.046169013 -0.08876938 0.21155414 0.18245077
0.010189176 -0.1568406 0.06787768 0.20568264 0.07990098 0.10166052 -0.12837748 -0.23892352
-0.09120011 0.007750958 0.21548578 0.050640196 -0.044461668 -0.060943246 -0.0463738 -0.13041848
-0.10153778 0.045057982 0.16424799 0.20600173 0.09339982 -0.16758528 0.22421277 0.2341946
-0.07207547 0.008362085 0.21954268 -0.08528757 0.114978224 0.04034117 0.13519567 0.0845027
0.24062824 0.20554823 -0.16549107 0.14595619 -0.047985554 -0.12690145 0.040679246 -0.03301215
-0.1580536 -0.21408121 -0.1351678 0.025818735 0.14930014 0.14349519 0.065837756 0.23046798
-0.20670539 -0.15235552 0.10533488 -0.22049701 0.22990566 0.034064766 -0.08424532 0.33598658
0.21053149 0.13621098 0.23273124 0.019477284 0.21412596 0.026053237 0.017459244 0.078303
-0.1958995 -0.15098989 0.2234761 -0.16468805 0.12503682 0.14060692 -0.20294546 -0.031802278
-0.0088144755 0.17417069 -0.072597414 0.2144605 -0.20404093 0.101322055 0.13242495 -0.0873725
-0.079761 -0.15448177 0.064345956 0.08127704 -0.08524853 0.1961383 -0.037162617 -0.037790895
0.18942532 0.0424954 0.12983191 0.14295757 -0.15875569 -0.0030720085 0.21419719 -0.14997303
0.031764925 0.18016204 0.026779205 -0.054382905 0.0877046 -0.20061275 0.19926485 0.19052732
-0.06791791 -0.08773908 -0.047441572 0.2413162 -0.0930998 0.07262561 -0.23026146 0.07331082
0.14695376 0.07850388 -0.011524722 0.017699689 0.21003047 0.10540125 -0.05604367 -0.19480617
0.17676234 -0.0902974 0.1512157 -0.048744038 0.0040253997 -0.19127217 -0.092397094 0.020011425
-0.20367554 -0.012518699 0.17271586 0.20747338 0.21025059 -0.037063085 0.05057523 -0.15791804
0.15784515 0.080037944 0.23352627 0.017848855 0.31725383 0.1272283 0.20256104 0.067220844
-0.1605563 -0.20593709 -0.23778975 0.026336165 -0.196005 -0.092912845 0.1148674 0.20692673
-0.068966046 0.15502776 -0.027179932 -0.06400796 -0.071367115 -0.030622844 0.27815667 -0.06044406
0.06752341 0.10380975 -0.0855114 -0.13444869 0.10809455 0.01432297 -0.10990151 -0.16891758
-0.049227014 -0.15693547 0.15603326 -0.0007421043 0.1475026 0.13582703 -0.03796022 -0.14700043
-0.0738905 0.20284173 -0.1977686 -0.14594965 0.16569933 -0.07479473 0.16791433 0.11588151
-0.07889397 -0.22296922 0.16700332 -0.007299748 0.20144476 -0.24715152 0.018963927 -0.2337647
-0.0466817 -0.23472452 -0.25726405 -0.013680702 0.22803353 0.0034434465 -0.03367906 0.21050128
0.0108018955 -0.15101244 0.14275685 0.15731958 0.19852744 0.17537601 0.21423438 -0.06613563
-0.18195732 -0.12330607 0.0022449067 -0.07968958 -0.33642948 0.13253704 -0.1401329 0.001330033
-0.028876767 -0.10924478 0.020682245 -0.122858435 0.21967536 -0.08780095 0.1535123 -0.057771474
-0.19095555 0.18827581 -0.06696996 -0.100474685 0.018182755 -0.002471 0.06843901 -0.058845848
-0.069976196 0.13269967 0.111165255 0.21437556 0.026766598 -0.06296131 -0.051671 -0.04942456
-0.07664785 -0.082773134 -0.06833507 0.07314375 0.09596494 0.18460011 -0.236019 0.1880776
00000000: 00dc 833c 74f3 3a3e 6aff 8bbd 82fc 81bd
00000010: b81b 3d3d b8cc b5bd a6a1 583e 60d4 3a3e
00000020: 80f0 263c d29a 20be 7403 8b3d 789e 523e
00000030: 20a3 a33d 6433 d03d 6375 03be 5ea8 74be
00000040: 20c7 babd c0fb fd3b 4ea8 5c3e 186c 4f3d
00000050: 701d 36bd a09f 79bd 74f2 3dbd 6c8c 05be
00000060: 0af3 cfbd b88e 383d a030 283e 1ef2 523e
00000070: 6848 bf3d 7a9b 2bbe 0898 653e b6d0 6f3e
00000080: 4e9c 93bd 2001 093c cccf 603e 40ab aebd
00000090: b479 eb3d c83c 253d bc70 0a3e c00f ad3d
000000a0: 4067 763e 3c7b 523e 7e76 29be 8a75 153e
000000b0: 808c 44bd 74f2 01be 489f 263d c037 07bd
000000c0: ced8 21be 1b38 5bbe 6e69 0abe d081 d33c
000000d0: 23e2 183e 67f0 123e f2d5 863d ccff 6b3e
000000e0: 94aa 53be 1603 1cbe d0b9 d73d f8c9 61be
000000f0: 646c 6b3e 7f87 0b3d cf88 acbd 6f06 ac3e
00000100: 9195 573e e47a 0b3e 1951 6e3e d38e 9f3c
00000110: d643 5b3e 996d d53c b006 8f3c 535d a03d
00000120: e199 48be 189d 1abe ebd6 643e fca3 28be
00000130: a709 003e 43fb 0f3e efd0 4fbe 1b43 02bd
00000140: 976a 10bc cd59 323e f4ad 94bd 899b 5b3e
00000150: 1bf0 50be f081 cf3d 689a 073e 5af0 b2bd
00000160: bc59 a3bd 7830 1ebe d0c7 833d 9474 a63d
00000170: c896 aebd 7ad8 483e d437 18bd a0ca 1abd
00000180: b6f8 413e a80f 2e3d a8f2 043e 7863 123e
00000190: da90 22be c053 49bb 8256 5b3e 8892 19be
000001a0: f01b 023d 667c 383e 1060 db3c 9cc0 5ebd
000001b0: 789e b33d 6e6d 4dbe 160c 4c3e 9819 433e
000001c0: 8c18 8bbd 8cb0 b3bd 1852 42bd 981b 773e
000001d0: 1cab bebd bcbc 943d a9c9 6bbe fc23 963d
000001e0: 0c7b 163e a4c6 a03d 30d2 3cbc f0fe 903c
000001f0: 3a12 573e 9cdc d73d 0c8e 65bd 457b 47be
00000200: 3001 353e d8ed b8bd 4ad8 1a3e d4a7 47bd
00000210: 80e7 833b dadc 43be b03a bdbd 00ef a33c
00000220: 5290 50be 3b1b 4dbc 6ddc 303e e773 543e
00000230: ee4b 573e 76cf 17bd f927 4f3d 44b5 21be
00000240: 29a2 213e efea a33d 8321 6f3e c337 923c
00000250: 186f a23e 2348 023e 296c 4f3e 15ab 893d
00000260: df68 24be 2ce1 52be 287f 73be f1be d73c
00000270: 89b5 48be 1749 bebd 993f eb3d 9ae4 533e
00000280: 123e 8dbd 99bf 1e3e 73a8 debc 9b16 83bd
00000290: ec28 92bd c2dc fabc 8d6a 8e3e 3194 77bd
000002a0: b749 8a3d 359a d43d 9a20 afbd ebac 09be
000002b0: ad60 dd3d e4aa 6a3c 0b14 e1bd bbf8 2cbe
000002c0: 44a2 49bd b1b3 20be 2fc7 1f3e c789 42ba
000002d0: ec0a 173e 3e16 0b3e 2d7c 1bbd 4887 16be
000002e0: e753 97bd beb5 4f3e da83 4abe d373 15be
000002f0: 16ad 293e fb2d 99bd bcf1 2b3e 4953 ed3d
00000300: 2993 a1bd 0b52 64be eb02 2b3e b932 efbb
00000310: 8947 4e3e 4a15 7dbe 3d5a 9b3c 0360 6fbe
00000320: 4f35 3fbd a05b 70be 1db8 83be 0625 60bc
00000330: 9f81 693e 72ab 613b 0ef3 09bd a68d 573e
00000340: 6ffa 303c 01a3 1abe da2e 123e 6218 213e
00000350: c74a 4b3e c595 333e 4260 5b3e 1e72 87bd
00000360: 0553 3abe e587 fcbd 491f 133b 4a34 a3bd
00000370: 7c40 acbe cab7 073e 007f 0fbe 8054 ae3a
00000380: f88e ecbc babb dfbd d06d a93c 349d fbbd
00000390: 94f2 603e fcd0 b3bd 5432 1d3e c8a1 6cbd
000003a0: da89 43be 60cb 403e 8c27 89bd acc5 cdbd
000003b0: 00f4 943c 80f0 21bb c029 8c3d 5808 71bd
000003c0: ae4f 8fbd 6ce2 073e 9caa e33d 4485 5b3e
000003d0: a045 db3c dcf1 80bd f8a4 53bd 6871 4abd
000003e0: 8cf9 9cbd f684 a9bd 42f3 8bbd 64cc 953d
000003f0: 4489 c43d d007 3d3e f7ae 71be 6a97 403e

critic.0.bias f4 [64]
-0.08609307 -0.18430535 -0.037708953 0.13385081 -0.12853198 0.22744602 -0.1084625 -0.107354686
-0.07622357 -0.21547826 0.23777604 -0.16459294 -0.109473094 -0.073488116 0.20416579 0.1131461
0.089298815 -0.07723803 0.12257162 0.04399678 0.19323882 0.053840995 0.18671985 0.16007125
0.021007564 -0.23866166 0.049348593 -0.1829961 0.041670024 -0.027160808 0.19297725 -0.16634417
-0.20276229 0.10809973 0.15623383 -0.07526863 0.06564477 0.19374909 0.024125755 -0.1345424
0.14023528 0.2185876 -0.0411686 0.16456151 0.020235717 -0.050783828 -0.021167219 -0.2354479
0.11635047 -0.13201103 -0.21656364 -0.033625677 -0.09881711 -0.15437227 -0.051060423 -0.024881613
0.073714286 0.04703506 -0.032405153 0.0533894 -0.16630833 0.21661232 0.10093315 0.11826437
00000000: 9051 b0bd 8bba 3cbe b474 1abd 3010 093e
00000010: e39d 03be 9ce7 683e 9621 debd c6dc dbbd
00000020: 1a1b 9cbd 55a6 5cbe 907b 733e 0d8b 28be
00000030: 6e33 e0bd f080 96bd d610 513e 24b9 e73d
00000040: 4ce2 b63d f92e 9ebd d406 fb3d f835 343d
00000050: 66e0 453e 6088 5c3d 7d33 3f3e b8e9 233e
00000060: 0e18 ac3c b963 74be c021 4a3d 5463 3bbe
00000070: 30ae 2a3d 5880 debc d49b 453e 2056 2abe
00000080: eba0 4fbe 6463 dd3d c3fb 1f3e 7126 9abd
00000090: c470 863d 2966 463e 60a3 c53c 7cc5 09be
000000a0: d699 0f3e 6ed5 5f3e 68a0 28bd d082 283e
000000b0: 60c5 a53c b402 50bd e066 adbc 4119 71be
000000c0: 2849 ee3d e62d 07be dcc2 5dbe 14bb 09bd
000000d0: a060 cabd c413 1ebe bc24 51bd 86d4 cbbc
000000e0: 84f7 963d d6a7 403d 44bb 04bd d8ae 5a3d
000000f0: bb4c 2abe 9fcf 5d3e 0ab6 ce3d 9734 f23d

critic.2.weight f4 [64, 64]
-0.11552223 0.08129298 0.026124671 -0.20211215 0.12272073 -0.006645169 0.028002216 0.09938336
0.011547313 0.09383445 -0.085547395 0.12342446 0.06339777 0.005652722 -0.094185494 -0.07124879
0.12538204 0.08485271 0.093409725 -0.0064754067 -0.07365773 0.025157467 -0.0635571 -0.077355996
0.106510065 0.12224646 -0.091863565 -0.114519574 0.020918086 -0.040012673 -0.06281282 -0.016283376
-0.0031993783 -0.030637866 0.052197658 0.12035885 0.04334511 -0.044177376 -0.015171203 0.1383594
0.0063349055 -0.11656187 0.015906382 0.06948335 -0.028033748 -0.027364597 -0.012928785 0.080846585
0.099186935 -0.0940663 0.11669283 0.055216104 0.039728507 -0.075036146 -0.075392105 0.08808256
0.027958632 -0.08627247 -0.021288514 0.0796596 -0.027657425 0.0778114 -0.037245546 0.021989444
0.020282622 -0.07667595 0.015736569 -0.0030695798 -0.109603725 -0.03726441 0.024547685 0.090307534
-0.043152582 -0.12463363 -0.0059259394 0.13278385 0.020448167 0.106948435 0.026988406 0.0693748
-0.04107013 0.12627032 0.013734128 -0.012944524 0.083466485 0.048995193 -0.09665086 0.003651315
0.14195979 0.06421467 -0.026885703 -0.09403142 -0.074885726 0.08213185 0.069209084 -0.11218127
-0.013019088 0.044283334 -0.15425186 0.15930964 -0.0006843269 -0.062775485 0.0012715957 0.08549844
0.015130033 0.13118833 0.08301516 0.00053987745 0.033925515 0.017642971 -0.03693096 -0.09446387
-0.025943372 -0.034965824 -0.0808308 0.057225425 -0.06509415 0.10702965 0.03205832 0.020880304
0.023786213 -0.012270836 0.09268238 0.0791814 0.0052282363 -0.052282922 0.019405777 -0.05591985
-0.0029917683 0.03985728 0.052494187 -0.17432486 0.045042258 -0.04503772 -0.09140448 -0.04987434
-0.044153545 0.04689915 -0.06712589 0.024264906 0.15333246 -0.07398112 0.026509864 -0.046892468
0.027371828 0.072264075 -0.07364179 0.026551893 0.12690924 0.012130163 -0.08532994 -0.0018318315
0.06430526 0.084999055 -0.012370967 -0.023429247 -0.06551113 0.0774152 -0.073972076 -0.05862162
0.07957785 -0.062102266 -0.045292746 -0.016343152 -0.11415699 0.06369523 -0.052144904 -0.029061085
-0.02418396 0.03088839 0.10639574 0.107204765 -0.0016522192 -0.103848666 0.0058641457 -0.00047130653
0.10892737 -0.0291962 -0.071700305 0.04205287 -0.024054112 0.046976235 0.040971097 0.00863913
0.07250363 -0.12966812 -0.105176225 0.12039308 0.1104824 -0.056202166 0.10304729 0.010423639
-0.03079671 -0.06564916 -0.06856954 0.11118021 -0.07888152 -0.049223203 0.12238843 -0.059014875
0.07792076 0.031737085 0.095678434 0.021287441 -0.007292913 0.053681947 0.035182822 -0.06614781
-0.10502369 -0.08904493 -0.013079294 0.03370117 -0.077180184 0.025078505 0.07407975 0.0714564
0.018629774 0.0646704 -0.11287897 0.09197811 -0.10194857 0.0048889085 -0.041316982 -0.11248382
-0.11039864 -0.08235114 -0.118781514 0.13519563 -0.021249887 -0.08147855 0.0024997755 -0.018796312
-0.016052015 0.105451025 -0.11236734 -0.110638656 0.028585568 0.08917495 -0.120807774 0.037222613
0.12589332 -0.022131234 -0.036614373 0.05927465 0.07265353 -0.010927895 -0.09990009 -0.03077522
-0.078901105 -0.172811 0.07597048 0.08789887 0.047634885 -0.113724925 0.11052129 0.07726246
00000000: eb96 ecbd ef7c a63d 6803 d63c 7df6 4ebe
00000010: 0255 fb3d b8bf d9bb e764 e53c 8189 cb3d
00000020: f130 3d3c 472c c03d 7933 afbd f7c5 fc3d
00000030: b1d6 813d 783a b93b 53e4 c0bd e3ea 91bd
00000040: 2664 003e 42c7 ad3d 994d bf3d a62f d4bb
00000050: ddd9 96bd 0817 ce3c 3a2a 82bd d26c 9ebd
00000060: f321 da3d 5a5c fa3d f722 bcbd 3d89 eabd
00000070: 685c ab3c 54e4 23bd 02a4 80bd b764 85bc
00000080: a9ac 51bb 43fc fabc 36cd 553d b37e f63d
00000090: a48a 313d 56f3 34bd a390 78bc 16ae 0d3e
000000a0: 0a95 cf3b fdb7 eebd 1a4e 823c 494d 8e3d
000000b0: 08a7 e5bc b82b e0bc 41d3 53bc e592 a53d
000000c0: 8522 cb3d d5a5 c0bd a7fc ee3d 482a 623d
000000d0: 5cba 223d 8dac 99bd 2d67 9abd a164 b43d
000000e0: 8009 e53c 9faf b0bd 4065 aebc 9324 a33d
000000f0: d391 e2bc 955b 9f3d c98e 18bd 3523 b43c
00000100: be27 a63c 4808 9dbd fae9 803c 012b 49bb
00000110: eb77 e0bd 91a2 18bd 3a18 c93c 28f3 b83d
00000120: c3c0 30bd eb3f ffbd 622e c2bb 7df8 073e
00000130: ea82 a73c c807 db3d ca16 dd3c 6014 8e3d
00000140: 2739 28bd 024d 013e 1c05 613c 4515 54bc
00000150: 7af0 aa3d 2faf 483d e3f0 c5bd e74a 6f3b
00000160: e85d 113e fb82 833d 683f dcbc 8c93 c0bd
00000170: b05d 99bd be34 a83d 7ebd 8d3d 4bbf e5bd
00000180: 034e 55bc 7162 353d 33f4 1dbe 1122 233e
00000190: 6764 33ba 6f90 80bd acab a63a ce19 af3d
000001a0: f5e3 773c 3c56 063e da03 aa3d 9086 0d3a
000001b0: 7bf5 0a3d fe87 903c eb44 17bd 4676 c1bd
000001c0: 3287 d4bc 5338 0fbd 9e8a a5bd 3565 6a3d
000001d0: 1550 85bd 5c32 db3d 964f 033d 2c0d ab3c
000001e0: 4edb c23c 9e0b 49bc 42d0 bd3d dc29 a23d
000001f0: a051 ab3b 9e26 56bd ddf8 9e3c 360c 65bd
00000200: 8b11 44bb 6341 233d 2504 573d 3782 32be
00000210: 3b7e 383d 7979 38bd 4632 bbbd 0949 4cbd
00000220: 59da 34bd 5319 403d 4c79 89bd 32c7 c63c
00000230: 2f03 1d3e 6a83 97bd 372b d93c 5112 40bd
00000240: e23a e03c 30ff 933d 82d1 96bd 5b83 d93c
00000250: 7ff4 013e 97bd 463c 77c1 aebd 111a f0ba
00000260: 7ab2 833d fc13 ae3d 99af 4abc b1ee bfbc
00000270: b32a 86bd dc8b 9e3d ac7e 97bd 391d 70bd
00000280: b6f9 a23d f25e 7ebd e384 39bd 13e2 85bc
00000290: 24cb e9bd a572 823d e595 55bd 8311 eebc
000002a0: 711d c6bc a609 fd3c 02e6 d93d 2c8e db3d
000002b0: 478f d8ba 9cae d4bd 0528 c03b b119 f7b9
000002c0: 5015 df3d df2c efbc 9cd7 92bd a13f 2c3d
000002d0: 210d c5bc 276a 403d 4fd1 273d 238b 0d3c
000002e0: c87c 943d b8c7 04be a266 d7bd a690 f63d
000002f0: 9944 e23d 3e34 66bd 750a d33d e9c7 2a3c
00000300: 6249 fcbc 1173 86bd 306e 8cbd 73b2 e33d
00000310: a28c a1bd 459e 49bd c9a6 fa3d 95b9 71bd
00000320: eb94 9f3d bffe 013d 0ef3 c33d 0063 ae3c
00000330: 63f9 eebb 9ae1 5b3d dd1b 103d 8178 87bd
00000340: a916 d7bd 305d b6bd 894a 56bc 3d0a 0a3d
00000350: a510 9ebd 7071 cd3c 20b7 973d bc57 923d
00000360: 789d 983c ea71 843d 172d e7bd 055f bc3d
00000370: 69ca d0bd 2333 a03b ff3b 29bd eb5d e6bd
00000380: af18 e2bd b7a7 a8bd b943 f3bd b970 0a3e
00000390: 3e14 aebc 3ade a6bd 46d3 233b b9fa 99bc
000003a0: 847f 83bc b5f6 d73d d920 e6bd 8596 e2bd
000003b0: 482c ea3c 5ba1 b63d 116a f7bd bd76 183d
000003c0: 2eea 003e 904c b5bc f4f8 15bd fac9 723d
000003d0: 60cb 943d ea0a 33bc 6b98 ccbd 501c fcbc
000003e0: e796 a1bd 5ef5 30be 6996 9b3d 5304 b43d
000003f0: cc1c 433d 9de8 e8bd fc58 e23d c83b 9e3d

critic.2.bias f4 [64]
0.0017881851 -0.049008813 0.029721117 -0.122411884 -0.12518276 -0.018805088 -0.08656616 -0.082858264
-0.017631933 0.06360795 0.05151959 -0.05298399 -0.016234534 0.121378824 0.011968138 0.07301448
-0.0291529 -0.111431025 -0.065220095 0.014295518 -0.02948466 -0.059070837 0.10920771 -0.11788943
-0.001614484 0.040316537 -0.021741547 0.061433084 0.008186636 -0.061504003 -0.06635257 -0.058833413
-0.13227963 0.07198776 0.11639018 -0.05819569 0.0032552928 0.042819634 0.04177039 -0.06691512
-0.069563806 0.124151625 0.07454567 0.124651864 0.08319163 -0.0075349025 0.08589249 -0.00550376
0.0013344262 -0.05491843 0.08090238 -0.031433973 0.014624997 -0.09578007 0.042577017 -0.059263792
-0.03922234 -0.02792611 0.04127084 -0.014730642 0.025203226 -0.07365251 -0.10073754 0.053714808
00000000: 8961 ea3a 77bd 48bd b379 f33c 15b3 fabd
00000010: e92f 00be 210d 9abc 9949 b1bd 98b1 a9bd
00000020: d870 90bc e344 823d 3506 533d be05 59bd
00000030: 49fe 84bc 7695 f83d 0216 443c 9e88 953d
00000040: 10d2 eebc f335 e4bd 1d92 85bd c037 6a3c
00000050: d089 f1bc 43f4 71bd 4ba8 df3d 0370 f1bd
00000060: 189d d3ba f422 253d 541b b2bc 42a1 7b3d
00000070: 3d21 063c 9feb 7bbd dbe3 87bd 4efb 70bd
00000080: 5074 07be 526e 933d fa5d ee3d 9b5e 6ebd
00000090: c056 553b a463 2f3d 6e17 2b3d cb0a 89bd
000000a0: 7877 8ebd 3543 fe3d 66ab 983d 7a49 ff3d
000000b0: 6060 aa3d 58e7 f6bb 67e8 af3d e358 b4bb
000000c0: eae7 ae3a 26f2 60bd 26b0 a53d e9c0 00bd
000000d0: af9d 6f3c 5728 c4bd 3d65 2e3d 97be 72bd
000000e0: 9ba7 20bd 4cc5 e4bc 9d0b 293d ca58 71bc
000000f0: ff76 ce3c 21d7 96bd 7c4f cebd 0f04 5c3d

critic.4.weight f4 [1, 64]
-0.09753906 -0.14398582 -0.10797872 -0.12523475 0.026790278 0.10418485 0.19098406 -0.16051908
-0.13105693 0.10975287 -0.06445343 0.13295856 0.015283318 -0.038453944 -0.044519365 0.07426031
-0.06374321 0.040289324 0.13235308 -0.08115109 -0.14075199 -0.08190505 0.104379125 -0.064322025
0.027458815 0.07576421 0.08697823 -0.07483279 -0.021189658 0.10192552 0.09263197 0.046568017
-0.12510304 0.08377505 -0.08262513 0.09294215 0.13694932 -0.1464482 0.02946534 -0.042133365
0.123894796 0.007933693 0.02995498 0.032538243 0.12840867 -0.12424588 0.14697905 -0.0401721
0.106725805 0.005282802 0.010003488 0.026797408 -0.09360492 -0.10539114 -0.07965889 -0.014761018
0.14199914 0.071495876 0.057464734 -0.1334677 0.1449069 0.10858794 -0.048835177 0.08751597
00000000: 8fc2 c7bd 0571 13be f223 ddbd 8a3d 00be
00000010: 4977 db3c de5e d53d 5391 433e 1d5f 24be
00000020: ca33 06be 1dc6 e03d 2900 84bd 4a26 083e
00000030: e266 7a3c e281 1dbd f059 36bd ca15 983d
00000040: cd8b 82bd 6b06 253d 9187 073e 8b32 a6bd
00000050: 4a21 10be d6bd a7bd b9c4 d53d 44bb 83bd
00000060: 4ff1 e03c 442a 9b3d a421 b23d ef41 99bd
00000070: ef95 adbc 54be d03d d5b5 bd3d 1bbe 3e3d
00000080: 031b 00be 4192 ab3d 5d37 a9bd 7458 be3d
00000090: 713c 0c3e 84f6 15be 4c61 f13c 0994 2cbd
000000a0: 8ebc fd3d 52fc 013c 2564 f53c d246 053d
000000b0: 907d 033e a074 febd ad81 163e 808b 24bd
000000c0: 0f93 da3d 5b1b ad3b abe5 233c 3d86 db3c
000000d0: f0b3 bfbd 4fd7 d7bd 3324 a3bd 32d8 71bc
000000e0: 3968 113e 6e6c 923d 2460 6b3d c2ab 08be
000000f0: 7962 143e 5b63 de3d 6507 48bd 933b b33d
